node {
  name: "global_step/Initializer/zeros"
  op: "Const"
  attr {
    key: "_class"
    value {
      list {
        s: "loc:@global_step"
      }
    }
  }
  attr {
    key: "_output_shapes"
    value {
      list {
        shape {
        }
      }
    }
  }
  attr {
    key: "dtype"
    value {
      type: DT_INT64
    }
  }
  attr {
    key: "value"
    value {
      tensor {
        dtype: DT_INT64
        tensor_shape {
        }
        int64_val: 0
      }
    }
  }
}
node {
  name: "global_step"
  op: "VarHandleOp"
  attr {
    key: "_class"
    value {
      list {
        s: "loc:@global_step"
      }
    }
  }
  attr {
    key: "_output_shapes"
    value {
      list {
        shape {
        }
      }
    }
  }
  attr {
    key: "container"
    value {
      s: ""
    }
  }
  attr {
    key: "dtype"
    value {
      type: DT_INT64
    }
  }
  attr {
    key: "shape"
    value {
      shape {
      }
    }
  }
  attr {
    key: "shared_name"
    value {
      s: "global_step"
    }
  }
}
node {
  name: "global_step/IsInitialized/VarIsInitializedOp"
  op: "VarIsInitializedOp"
  input: "global_step"
  attr {
    key: "_output_shapes"
    value {
      list {
        shape {
        }
      }
    }
  }
}
node {
  name: "global_step/Assign"
  op: "AssignVariableOp"
  input: "global_step"
  input: "global_step/Initializer/zeros"
  attr {
    key: "_class"
    value {
      list {
        s: "loc:@global_step"
      }
    }
  }
  attr {
    key: "dtype"
    value {
      type: DT_INT64
    }
  }
}
node {
  name: "global_step/Read/ReadVariableOp"
  op: "ReadVariableOp"
  input: "global_step"
  attr {
    key: "_class"
    value {
      list {
        s: "loc:@global_step"
      }
    }
  }
  attr {
    key: "_output_shapes"
    value {
      list {
        shape {
        }
      }
    }
  }
  attr {
    key: "dtype"
    value {
      type: DT_INT64
    }
  }
}
node {
  name: "global_step/VarIsInitializedOp"
  op: "VarIsInitializedOp"
  input: "global_step"
  attr {
    key: "_output_shapes"
    value {
      list {
        shape {
        }
      }
    }
  }
}
node {
  name: "global_step/cond/Switch"
  op: "Switch"
  input: "global_step/VarIsInitializedOp"
  input: "global_step/VarIsInitializedOp"
  attr {
    key: "T"
    value {
      type: DT_BOOL
    }
  }
  attr {
    key: "_output_shapes"
    value {
      list {
        shape {
        }
        shape {
        }
      }
    }
  }
}
node {
  name: "global_step/cond/switch_t"
  op: "Identity"
  input: "global_step/cond/Switch:1"
  attr {
    key: "T"
    value {
      type: DT_BOOL
    }
  }
  attr {
    key: "_output_shapes"
    value {
      list {
        shape {
        }
      }
    }
  }
}
node {
  name: "global_step/cond/switch_f"
  op: "Identity"
  input: "global_step/cond/Switch"
  attr {
    key: "T"
    value {
      type: DT_BOOL
    }
  }
  attr {
    key: "_output_shapes"
    value {
      list {
        shape {
        }
      }
    }
  }
}
node {
  name: "global_step/cond/pred_id"
  op: "Identity"
  input: "global_step/VarIsInitializedOp"
  attr {
    key: "T"
    value {
      type: DT_BOOL
    }
  }
  attr {
    key: "_output_shapes"
    value {
      list {
        shape {
        }
      }
    }
  }
}
node {
  name: "global_step/cond/Read/ReadVariableOp"
  op: "ReadVariableOp"
  input: "global_step/cond/Read/ReadVariableOp/Switch:1"
  attr {
    key: "_output_shapes"
    value {
      list {
        shape {
        }
      }
    }
  }
  attr {
    key: "dtype"
    value {
      type: DT_INT64
    }
  }
}
node {
  name: "global_step/cond/Read/ReadVariableOp/Switch"
  op: "Switch"
  input: "global_step"
  input: "global_step/cond/pred_id"
  attr {
    key: "T"
    value {
      type: DT_RESOURCE
    }
  }
  attr {
    key: "_class"
    value {
      list {
        s: "loc:@global_step"
      }
    }
  }
  attr {
    key: "_output_shapes"
    value {
      list {
        shape {
        }
        shape {
        }
      }
    }
  }
}
node {
  name: "global_step/cond/Identity"
  op: "Identity"
  input: "global_step/cond/Read/ReadVariableOp"
  attr {
    key: "T"
    value {
      type: DT_INT64
    }
  }
  attr {
    key: "_output_shapes"
    value {
      list {
        shape {
        }
      }
    }
  }
}
node {
  name: "global_step/cond/Switch_1"
  op: "Switch"
  input: "global_step/Initializer/zeros"
  input: "global_step/cond/pred_id"
  attr {
    key: "T"
    value {
      type: DT_INT64
    }
  }
  attr {
    key: "_class"
    value {
      list {
        s: "loc:@global_step"
      }
    }
  }
  attr {
    key: "_output_shapes"
    value {
      list {
        shape {
        }
        shape {
        }
      }
    }
  }
}
node {
  name: "global_step/cond/Merge"
  op: "Merge"
  input: "global_step/cond/Switch_1"
  input: "global_step/cond/Identity"
  attr {
    key: "N"
    value {
      i: 2
    }
  }
  attr {
    key: "T"
    value {
      type: DT_INT64
    }
  }
  attr {
    key: "_output_shapes"
    value {
      list {
        shape {
        }
        shape {
        }
      }
    }
  }
}
node {
  name: "global_step/add/y"
  op: "Const"
  attr {
    key: "_output_shapes"
    value {
      list {
        shape {
        }
      }
    }
  }
  attr {
    key: "dtype"
    value {
      type: DT_INT64
    }
  }
  attr {
    key: "value"
    value {
      tensor {
        dtype: DT_INT64
        tensor_shape {
        }
        int64_val: 0
      }
    }
  }
}
node {
  name: "global_step/add"
  op: "Add"
  input: "global_step/cond/Merge"
  input: "global_step/add/y"
  attr {
    key: "T"
    value {
      type: DT_INT64
    }
  }
  attr {
    key: "_output_shapes"
    value {
      list {
        shape {
        }
      }
    }
  }
}
node {
  name: "input_pipeline_task0/Const"
  op: "Const"
  device: "/job:tpu_worker/task:0/device:CPU:0"
  attr {
    key: "_output_shapes"
    value {
      list {
        shape {
          dim {
            size: 2
          }
        }
      }
    }
  }
  attr {
    key: "dtype"
    value {
      type: DT_STRING
    }
  }
  attr {
    key: "value"
    value {
      tensor {
        dtype: DT_STRING
        tensor_shape {
          dim {
            size: 2
          }
        }
        string_val: "gs://victoratpl-gan-tpu/tfrecords/train-1-of-2.tfrecords"
        string_val: "gs://victoratpl-gan-tpu/tfrecords/train-2-of-2.tfrecords"
      }
    }
  }
}
node {
  name: "input_pipeline_task0/flat_filenames/shape"
  op: "Const"
  device: "/job:tpu_worker/task:0/device:CPU:0"
  attr {
    key: "_output_shapes"
    value {
      list {
        shape {
          dim {
            size: 1
          }
        }
      }
    }
  }
  attr {
    key: "dtype"
    value {
      type: DT_INT32
    }
  }
  attr {
    key: "value"
    value {
      tensor {
        dtype: DT_INT32
        tensor_shape {
          dim {
            size: 1
          }
        }
        int_val: -1
      }
    }
  }
}
node {
  name: "input_pipeline_task0/flat_filenames"
  op: "Reshape"
  input: "input_pipeline_task0/Const"
  input: "input_pipeline_task0/flat_filenames/shape"
  device: "/job:tpu_worker/task:0/device:CPU:0"
  attr {
    key: "T"
    value {
      type: DT_STRING
    }
  }
  attr {
    key: "Tshape"
    value {
      type: DT_INT32
    }
  }
  attr {
    key: "_output_shapes"
    value {
      list {
        shape {
          dim {
            size: 2
          }
        }
      }
    }
  }
}
node {
  name: "input_pipeline_task0/num_parallel_calls"
  op: "Const"
  device: "/job:tpu_worker/task:0/device:CPU:0"
  attr {
    key: "_output_shapes"
    value {
      list {
        shape {
        }
      }
    }
  }
  attr {
    key: "dtype"
    value {
      type: DT_INT32
    }
  }
  attr {
    key: "value"
    value {
      tensor {
        dtype: DT_INT32
        tensor_shape {
        }
        int_val: -1
      }
    }
  }
}
node {
  name: "input_pipeline_task0/count"
  op: "Const"
  device: "/job:tpu_worker/task:0/device:CPU:0"
  attr {
    key: "_output_shapes"
    value {
      list {
        shape {
        }
      }
    }
  }
  attr {
    key: "dtype"
    value {
      type: DT_INT64
    }
  }
  attr {
    key: "value"
    value {
      tensor {
        dtype: DT_INT64
        tensor_shape {
        }
        int64_val: -1
      }
    }
  }
}
node {
  name: "input_pipeline_task0/buffer_size"
  op: "Const"
  device: "/job:tpu_worker/task:0/device:CPU:0"
  attr {
    key: "_output_shapes"
    value {
      list {
        shape {
        }
      }
    }
  }
  attr {
    key: "dtype"
    value {
      type: DT_INT64
    }
  }
  attr {
    key: "value"
    value {
      tensor {
        dtype: DT_INT64
        tensor_shape {
        }
        int64_val: 10000
      }
    }
  }
}
node {
  name: "input_pipeline_task0/seed"
  op: "Const"
  device: "/job:tpu_worker/task:0/device:CPU:0"
  attr {
    key: "_output_shapes"
    value {
      list {
        shape {
        }
      }
    }
  }
  attr {
    key: "dtype"
    value {
      type: DT_INT64
    }
  }
  attr {
    key: "value"
    value {
      tensor {
        dtype: DT_INT64
        tensor_shape {
        }
        int64_val: 0
      }
    }
  }
}
node {
  name: "input_pipeline_task0/seed2"
  op: "Const"
  device: "/job:tpu_worker/task:0/device:CPU:0"
  attr {
    key: "_output_shapes"
    value {
      list {
        shape {
        }
      }
    }
  }
  attr {
    key: "dtype"
    value {
      type: DT_INT64
    }
  }
  attr {
    key: "value"
    value {
      tensor {
        dtype: DT_INT64
        tensor_shape {
        }
        int64_val: 0
      }
    }
  }
}
node {
  name: "input_pipeline_task0/batch_size"
  op: "Const"
  device: "/job:tpu_worker/task:0/device:CPU:0"
  attr {
    key: "_output_shapes"
    value {
      list {
        shape {
        }
      }
    }
  }
  attr {
    key: "dtype"
    value {
      type: DT_INT64
    }
  }
  attr {
    key: "value"
    value {
      tensor {
        dtype: DT_INT64
        tensor_shape {
        }
        int64_val: 2048
      }
    }
  }
}
node {
  name: "input_pipeline_task0/drop_remainder"
  op: "Const"
  device: "/job:tpu_worker/task:0/device:CPU:0"
  attr {
    key: "_output_shapes"
    value {
      list {
        shape {
        }
      }
    }
  }
  attr {
    key: "dtype"
    value {
      type: DT_BOOL
    }
  }
  attr {
    key: "value"
    value {
      tensor {
        dtype: DT_BOOL
        tensor_shape {
        }
        bool_val: true
      }
    }
  }
}
node {
  name: "input_pipeline_task0/buffer_size_1"
  op: "Const"
  device: "/job:tpu_worker/task:0/device:CPU:0"
  attr {
    key: "_output_shapes"
    value {
      list {
        shape {
        }
      }
    }
  }
  attr {
    key: "dtype"
    value {
      type: DT_INT64
    }
  }
  attr {
    key: "value"
    value {
      tensor {
        dtype: DT_INT64
        tensor_shape {
        }
        int64_val: -1
      }
    }
  }
}
node {
  name: "input_pipeline_task0/OneShotIterator"
  op: "OneShotIterator"
  device: "/job:tpu_worker/task:0/device:CPU:0"
  attr {
    key: "_output_shapes"
    value {
      list {
        shape {
        }
      }
    }
  }
  attr {
    key: "container"
    value {
      s: ""
    }
  }
  attr {
    key: "dataset_factory"
    value {
      func {
        name: "_make_dataset_Y2kVwh2aTmE"
      }
    }
  }
  attr {
    key: "output_shapes"
    value {
      list {
        shape {
          dim {
            size: 2048
          }
          dim {
            size: 32
          }
          dim {
            size: 32
          }
          dim {
            size: 3
          }
        }
      }
    }
  }
  attr {
    key: "output_types"
    value {
      list {
        type: DT_FLOAT
      }
    }
  }
  attr {
    key: "shared_name"
    value {
      s: ""
    }
  }
}
node {
  name: "input_pipeline_task0/IteratorToStringHandle"
  op: "IteratorToStringHandle"
  input: "input_pipeline_task0/OneShotIterator"
  device: "/job:tpu_worker/task:0/device:CPU:0"
  attr {
    key: "_output_shapes"
    value {
      list {
        shape {
        }
      }
    }
  }
}
node {
  name: "input_pipeline_task0/IteratorGetNext"
  op: "IteratorGetNext"
  input: "input_pipeline_task0/OneShotIterator"
  device: "/job:tpu_worker/task:0/device:CPU:0"
  attr {
    key: "_output_shapes"
    value {
      list {
        shape {
          dim {
            size: 2048
          }
          dim {
            size: 32
          }
          dim {
            size: 32
          }
          dim {
            size: 3
          }
        }
      }
    }
  }
  attr {
    key: "output_shapes"
    value {
      list {
        shape {
          dim {
            size: 2048
          }
          dim {
            size: 32
          }
          dim {
            size: 32
          }
          dim {
            size: 3
          }
        }
      }
    }
  }
  attr {
    key: "output_types"
    value {
      list {
        type: DT_FLOAT
      }
    }
  }
}
node {
  name: "input_pipeline_task0/random_normal/shape"
  op: "Const"
  device: "/job:tpu_worker/task:0/device:CPU:0"
  attr {
    key: "_output_shapes"
    value {
      list {
        shape {
          dim {
            size: 2
          }
        }
      }
    }
  }
  attr {
    key: "dtype"
    value {
      type: DT_INT32
    }
  }
  attr {
    key: "value"
    value {
      tensor {
        dtype: DT_INT32
        tensor_shape {
          dim {
            size: 2
          }
        }
        tensor_content: "\000\010\000\000\200\000\000\000"
      }
    }
  }
}
node {
  name: "input_pipeline_task0/random_normal/mean"
  op: "Const"
  device: "/job:tpu_worker/task:0/device:CPU:0"
  attr {
    key: "_output_shapes"
    value {
      list {
        shape {
        }
      }
    }
  }
  attr {
    key: "dtype"
    value {
      type: DT_FLOAT
    }
  }
  attr {
    key: "value"
    value {
      tensor {
        dtype: DT_FLOAT
        tensor_shape {
        }
        float_val: 0.0
      }
    }
  }
}
node {
  name: "input_pipeline_task0/random_normal/stddev"
  op: "Const"
  device: "/job:tpu_worker/task:0/device:CPU:0"
  attr {
    key: "_output_shapes"
    value {
      list {
        shape {
        }
      }
    }
  }
  attr {
    key: "dtype"
    value {
      type: DT_FLOAT
    }
  }
  attr {
    key: "value"
    value {
      tensor {
        dtype: DT_FLOAT
        tensor_shape {
        }
        float_val: 1.0
      }
    }
  }
}
node {
  name: "input_pipeline_task0/random_normal/RandomStandardNormal"
  op: "RandomStandardNormal"
  input: "input_pipeline_task0/random_normal/shape"
  device: "/job:tpu_worker/task:0/device:CPU:0"
  attr {
    key: "T"
    value {
      type: DT_INT32
    }
  }
  attr {
    key: "_output_shapes"
    value {
      list {
        shape {
          dim {
            size: 2048
          }
          dim {
            size: 128
          }
        }
      }
    }
  }
  attr {
    key: "dtype"
    value {
      type: DT_FLOAT
    }
  }
  attr {
    key: "seed"
    value {
      i: 0
    }
  }
  attr {
    key: "seed2"
    value {
      i: 0
    }
  }
}
node {
  name: "input_pipeline_task0/random_normal/mul"
  op: "Mul"
  input: "input_pipeline_task0/random_normal/RandomStandardNormal"
  input: "input_pipeline_task0/random_normal/stddev"
  device: "/job:tpu_worker/task:0/device:CPU:0"
  attr {
    key: "T"
    value {
      type: DT_FLOAT
    }
  }
  attr {
    key: "_output_shapes"
    value {
      list {
        shape {
          dim {
            size: 2048
          }
          dim {
            size: 128
          }
        }
      }
    }
  }
}
node {
  name: "input_pipeline_task0/random_normal"
  op: "Add"
  input: "input_pipeline_task0/random_normal/mul"
  input: "input_pipeline_task0/random_normal/mean"
  device: "/job:tpu_worker/task:0/device:CPU:0"
  attr {
    key: "T"
    value {
      type: DT_FLOAT
    }
  }
  attr {
    key: "_output_shapes"
    value {
      list {
        shape {
          dim {
            size: 2048
          }
          dim {
            size: 128
          }
        }
      }
    }
  }
}
node {
  name: "input_pipeline_task0/Const_1"
  op: "Const"
  device: "/job:tpu_worker/task:0/device:CPU:0"
  attr {
    key: "_class"
    value {
      list {
        s: "loc:@input_pipeline_task0/random_normal"
      }
    }
  }
  attr {
    key: "_output_shapes"
    value {
      list {
        shape {
        }
      }
    }
  }
  attr {
    key: "dtype"
    value {
      type: DT_INT32
    }
  }
  attr {
    key: "value"
    value {
      tensor {
        dtype: DT_INT32
        tensor_shape {
        }
        int_val: 8
      }
    }
  }
}
node {
  name: "input_pipeline_task0/InfeedQueue/split/0/split_dim"
  op: "Const"
  device: "/job:tpu_worker/task:0/device:CPU:0"
  attr {
    key: "_class"
    value {
      list {
        s: "loc:@input_pipeline_task0/random_normal"
      }
    }
  }
  attr {
    key: "_output_shapes"
    value {
      list {
        shape {
        }
      }
    }
  }
  attr {
    key: "dtype"
    value {
      type: DT_INT32
    }
  }
  attr {
    key: "value"
    value {
      tensor {
        dtype: DT_INT32
        tensor_shape {
        }
        int_val: 0
      }
    }
  }
}
node {
  name: "input_pipeline_task0/InfeedQueue/split/0"
  op: "Split"
  input: "input_pipeline_task0/InfeedQueue/split/0/split_dim"
  input: "input_pipeline_task0/random_normal"
  device: "/job:tpu_worker/task:0/device:CPU:0"
  attr {
    key: "T"
    value {
      type: DT_FLOAT
    }
  }
  attr {
    key: "_class"
    value {
      list {
        s: "loc:@input_pipeline_task0/random_normal"
      }
    }
  }
  attr {
    key: "_output_shapes"
    value {
      list {
        shape {
          dim {
            size: 256
          }
          dim {
            size: 128
          }
        }
        shape {
          dim {
            size: 256
          }
          dim {
            size: 128
          }
        }
        shape {
          dim {
            size: 256
          }
          dim {
            size: 128
          }
        }
        shape {
          dim {
            size: 256
          }
          dim {
            size: 128
          }
        }
        shape {
          dim {
            size: 256
          }
          dim {
            size: 128
          }
        }
        shape {
          dim {
            size: 256
          }
          dim {
            size: 128
          }
        }
        shape {
          dim {
            size: 256
          }
          dim {
            size: 128
          }
        }
        shape {
          dim {
            size: 256
          }
          dim {
            size: 128
          }
        }
      }
    }
  }
  attr {
    key: "num_split"
    value {
      i: 8
    }
  }
}
node {
  name: "input_pipeline_task0/Const_2"
  op: "Const"
  device: "/job:tpu_worker/task:0/device:CPU:0"
  attr {
    key: "_class"
    value {
      list {
        s: "loc:@input_pipeline_task0/IteratorGetNext"
      }
    }
  }
  attr {
    key: "_output_shapes"
    value {
      list {
        shape {
        }
      }
    }
  }
  attr {
    key: "dtype"
    value {
      type: DT_INT32
    }
  }
  attr {
    key: "value"
    value {
      tensor {
        dtype: DT_INT32
        tensor_shape {
        }
        int_val: 8
      }
    }
  }
}
node {
  name: "input_pipeline_task0/InfeedQueue/split/1/split_dim"
  op: "Const"
  device: "/job:tpu_worker/task:0/device:CPU:0"
  attr {
    key: "_class"
    value {
      list {
        s: "loc:@input_pipeline_task0/IteratorGetNext"
      }
    }
  }
  attr {
    key: "_output_shapes"
    value {
      list {
        shape {
        }
      }
    }
  }
  attr {
    key: "dtype"
    value {
      type: DT_INT32
    }
  }
  attr {
    key: "value"
    value {
      tensor {
        dtype: DT_INT32
        tensor_shape {
        }
        int_val: 0
      }
    }
  }
}
node {
  name: "input_pipeline_task0/InfeedQueue/split/1"
  op: "Split"
  input: "input_pipeline_task0/InfeedQueue/split/1/split_dim"
  input: "input_pipeline_task0/IteratorGetNext"
  device: "/job:tpu_worker/task:0/device:CPU:0"
  attr {
    key: "T"
    value {
      type: DT_FLOAT
    }
  }
  attr {
    key: "_class"
    value {
      list {
        s: "loc:@input_pipeline_task0/IteratorGetNext"
      }
    }
  }
  attr {
    key: "_output_shapes"
    value {
      list {
        shape {
          dim {
            size: 256
          }
          dim {
            size: 32
          }
          dim {
            size: 32
          }
          dim {
            size: 3
          }
        }
        shape {
          dim {
            size: 256
          }
          dim {
            size: 32
          }
          dim {
            size: 32
          }
          dim {
            size: 3
          }
        }
        shape {
          dim {
            size: 256
          }
          dim {
            size: 32
          }
          dim {
            size: 32
          }
          dim {
            size: 3
          }
        }
        shape {
          dim {
            size: 256
          }
          dim {
            size: 32
          }
          dim {
            size: 32
          }
          dim {
            size: 3
          }
        }
        shape {
          dim {
            size: 256
          }
          dim {
            size: 32
          }
          dim {
            size: 32
          }
          dim {
            size: 3
          }
        }
        shape {
          dim {
            size: 256
          }
          dim {
            size: 32
          }
          dim {
            size: 32
          }
          dim {
            size: 3
          }
        }
        shape {
          dim {
            size: 256
          }
          dim {
            size: 32
          }
          dim {
            size: 32
          }
          dim {
            size: 3
          }
        }
        shape {
          dim {
            size: 256
          }
          dim {
            size: 32
          }
          dim {
            size: 32
          }
          dim {
            size: 3
          }
        }
      }
    }
  }
  attr {
    key: "num_split"
    value {
      i: 8
    }
  }
}
node {
  name: "input_pipeline_task0/InfeedQueue/enqueue/0"
  op: "InfeedEnqueueTuple"
  input: "input_pipeline_task0/InfeedQueue/split/0"
  input: "input_pipeline_task0/InfeedQueue/split/1"
  device: "/job:tpu_worker/task:0/device:CPU:0"
  attr {
    key: "device_ordinal"
    value {
      i: 0
    }
  }
  attr {
    key: "dtypes"
    value {
      list {
        type: DT_FLOAT
        type: DT_FLOAT
      }
    }
  }
  attr {
    key: "shapes"
    value {
      list {
        shape {
          dim {
            size: 256
          }
          dim {
            size: 128
          }
        }
        shape {
          dim {
            size: 256
          }
          dim {
            size: 32
          }
          dim {
            size: 32
          }
          dim {
            size: 3
          }
        }
      }
    }
  }
}
node {
  name: "input_pipeline_task0/InfeedQueue/enqueue/1"
  op: "InfeedEnqueueTuple"
  input: "input_pipeline_task0/InfeedQueue/split/0:1"
  input: "input_pipeline_task0/InfeedQueue/split/1:1"
  device: "/job:tpu_worker/task:0/device:CPU:0"
  attr {
    key: "device_ordinal"
    value {
      i: 1
    }
  }
  attr {
    key: "dtypes"
    value {
      list {
        type: DT_FLOAT
        type: DT_FLOAT
      }
    }
  }
  attr {
    key: "shapes"
    value {
      list {
        shape {
          dim {
            size: 256
          }
          dim {
            size: 128
          }
        }
        shape {
          dim {
            size: 256
          }
          dim {
            size: 32
          }
          dim {
            size: 32
          }
          dim {
            size: 3
          }
        }
      }
    }
  }
}
node {
  name: "input_pipeline_task0/InfeedQueue/enqueue/2"
  op: "InfeedEnqueueTuple"
  input: "input_pipeline_task0/InfeedQueue/split/0:2"
  input: "input_pipeline_task0/InfeedQueue/split/1:2"
  device: "/job:tpu_worker/task:0/device:CPU:0"
  attr {
    key: "device_ordinal"
    value {
      i: 2
    }
  }
  attr {
    key: "dtypes"
    value {
      list {
        type: DT_FLOAT
        type: DT_FLOAT
      }
    }
  }
  attr {
    key: "shapes"
    value {
      list {
        shape {
          dim {
            size: 256
          }
          dim {
            size: 128
          }
        }
        shape {
          dim {
            size: 256
          }
          dim {
            size: 32
          }
          dim {
            size: 32
          }
          dim {
            size: 3
          }
        }
      }
    }
  }
}
node {
  name: "input_pipeline_task0/InfeedQueue/enqueue/3"
  op: "InfeedEnqueueTuple"
  input: "input_pipeline_task0/InfeedQueue/split/0:3"
  input: "input_pipeline_task0/InfeedQueue/split/1:3"
  device: "/job:tpu_worker/task:0/device:CPU:0"
  attr {
    key: "device_ordinal"
    value {
      i: 3
    }
  }
  attr {
    key: "dtypes"
    value {
      list {
        type: DT_FLOAT
        type: DT_FLOAT
      }
    }
  }
  attr {
    key: "shapes"
    value {
      list {
        shape {
          dim {
            size: 256
          }
          dim {
            size: 128
          }
        }
        shape {
          dim {
            size: 256
          }
          dim {
            size: 32
          }
          dim {
            size: 32
          }
          dim {
            size: 3
          }
        }
      }
    }
  }
}
node {
  name: "input_pipeline_task0/InfeedQueue/enqueue/4"
  op: "InfeedEnqueueTuple"
  input: "input_pipeline_task0/InfeedQueue/split/0:4"
  input: "input_pipeline_task0/InfeedQueue/split/1:4"
  device: "/job:tpu_worker/task:0/device:CPU:0"
  attr {
    key: "device_ordinal"
    value {
      i: 4
    }
  }
  attr {
    key: "dtypes"
    value {
      list {
        type: DT_FLOAT
        type: DT_FLOAT
      }
    }
  }
  attr {
    key: "shapes"
    value {
      list {
        shape {
          dim {
            size: 256
          }
          dim {
            size: 128
          }
        }
        shape {
          dim {
            size: 256
          }
          dim {
            size: 32
          }
          dim {
            size: 32
          }
          dim {
            size: 3
          }
        }
      }
    }
  }
}
node {
  name: "input_pipeline_task0/InfeedQueue/enqueue/5"
  op: "InfeedEnqueueTuple"
  input: "input_pipeline_task0/InfeedQueue/split/0:5"
  input: "input_pipeline_task0/InfeedQueue/split/1:5"
  device: "/job:tpu_worker/task:0/device:CPU:0"
  attr {
    key: "device_ordinal"
    value {
      i: 5
    }
  }
  attr {
    key: "dtypes"
    value {
      list {
        type: DT_FLOAT
        type: DT_FLOAT
      }
    }
  }
  attr {
    key: "shapes"
    value {
      list {
        shape {
          dim {
            size: 256
          }
          dim {
            size: 128
          }
        }
        shape {
          dim {
            size: 256
          }
          dim {
            size: 32
          }
          dim {
            size: 32
          }
          dim {
            size: 3
          }
        }
      }
    }
  }
}
node {
  name: "input_pipeline_task0/InfeedQueue/enqueue/6"
  op: "InfeedEnqueueTuple"
  input: "input_pipeline_task0/InfeedQueue/split/0:6"
  input: "input_pipeline_task0/InfeedQueue/split/1:6"
  device: "/job:tpu_worker/task:0/device:CPU:0"
  attr {
    key: "device_ordinal"
    value {
      i: 6
    }
  }
  attr {
    key: "dtypes"
    value {
      list {
        type: DT_FLOAT
        type: DT_FLOAT
      }
    }
  }
  attr {
    key: "shapes"
    value {
      list {
        shape {
          dim {
            size: 256
          }
          dim {
            size: 128
          }
        }
        shape {
          dim {
            size: 256
          }
          dim {
            size: 32
          }
          dim {
            size: 32
          }
          dim {
            size: 3
          }
        }
      }
    }
  }
}
node {
  name: "input_pipeline_task0/InfeedQueue/enqueue/7"
  op: "InfeedEnqueueTuple"
  input: "input_pipeline_task0/InfeedQueue/split/0:7"
  input: "input_pipeline_task0/InfeedQueue/split/1:7"
  device: "/job:tpu_worker/task:0/device:CPU:0"
  attr {
    key: "device_ordinal"
    value {
      i: 7
    }
  }
  attr {
    key: "dtypes"
    value {
      list {
        type: DT_FLOAT
        type: DT_FLOAT
      }
    }
  }
  attr {
    key: "shapes"
    value {
      list {
        shape {
          dim {
            size: 256
          }
          dim {
            size: 128
          }
        }
        shape {
          dim {
            size: 256
          }
          dim {
            size: 32
          }
          dim {
            size: 32
          }
          dim {
            size: 3
          }
        }
      }
    }
  }
}
node {
  name: "tpu_estimator/iterations_per_loop/Initializer/zeros"
  op: "Const"
  attr {
    key: "_class"
    value {
      list {
        s: "loc:@global_step"
      }
    }
  }
  attr {
    key: "_output_shapes"
    value {
      list {
        shape {
        }
      }
    }
  }
  attr {
    key: "dtype"
    value {
      type: DT_INT32
    }
  }
  attr {
    key: "value"
    value {
      tensor {
        dtype: DT_INT32
        tensor_shape {
        }
        int_val: 0
      }
    }
  }
}
node {
  name: "tpu_estimator/iterations_per_loop"
  op: "VarHandleOp"
  attr {
    key: "_class"
    value {
      list {
        s: "loc:@global_step"
      }
    }
  }
  attr {
    key: "_output_shapes"
    value {
      list {
        shape {
        }
      }
    }
  }
  attr {
    key: "container"
    value {
      s: ""
    }
  }
  attr {
    key: "dtype"
    value {
      type: DT_INT32
    }
  }
  attr {
    key: "shape"
    value {
      shape {
      }
    }
  }
  attr {
    key: "shared_name"
    value {
      s: "tpu_estimator/iterations_per_loop"
    }
  }
}
node {
  name: "tpu_estimator/iterations_per_loop/IsInitialized/VarIsInitializedOp"
  op: "VarIsInitializedOp"
  input: "tpu_estimator/iterations_per_loop"
  attr {
    key: "_class"
    value {
      list {
        s: "loc:@global_step"
      }
    }
  }
  attr {
    key: "_output_shapes"
    value {
      list {
        shape {
        }
      }
    }
  }
}
node {
  name: "tpu_estimator/iterations_per_loop/Assign"
  op: "AssignVariableOp"
  input: "tpu_estimator/iterations_per_loop"
  input: "tpu_estimator/iterations_per_loop/Initializer/zeros"
  attr {
    key: "_class"
    value {
      list {
        s: "loc:@global_step"
      }
    }
  }
  attr {
    key: "dtype"
    value {
      type: DT_INT32
    }
  }
}
node {
  name: "tpu_estimator/iterations_per_loop/Read/ReadVariableOp"
  op: "ReadVariableOp"
  input: "tpu_estimator/iterations_per_loop"
  attr {
    key: "_class"
    value {
      list {
        s: "loc:@global_step"
      }
    }
  }
  attr {
    key: "_output_shapes"
    value {
      list {
        shape {
        }
      }
    }
  }
  attr {
    key: "dtype"
    value {
      type: DT_INT32
    }
  }
}
node {
  name: "cluster/pivot"
  op: "NoOp"
}
node {
  name: "TPUReplicateMetadata"
  op: "TPUReplicateMetadata"
  input: "^cluster/pivot"
  attr {
    key: "_tpu_replicate"
    value {
      s: "cluster"
    }
  }
  attr {
    key: "computation_shape"
    value {
      list {
      }
    }
  }
  attr {
    key: "device_assignment"
    value {
      list {
      }
    }
  }
  attr {
    key: "host_compute_core"
    value {
      list {
      }
    }
  }
  attr {
    key: "num_cores_per_replica"
    value {
      i: 1
    }
  }
  attr {
    key: "num_replicas"
    value {
      i: 8
    }
  }
  attr {
    key: "topology"
    value {
      s: ""
    }
  }
  attr {
    key: "use_tpu"
    value {
      b: true
    }
  }
}
node {
  name: "Const"
  op: "Const"
  input: "^TPUReplicateMetadata"
  attr {
    key: "_output_shapes"
    value {
      list {
        shape {
        }
      }
    }
  }
  attr {
    key: "_tpu_replicate"
    value {
      s: "cluster"
    }
  }
  attr {
    key: "dtype"
    value {
      type: DT_INT32
    }
  }
  attr {
    key: "value"
    value {
      tensor {
        dtype: DT_INT32
        tensor_shape {
        }
        int_val: 0
      }
    }
  }
}
node {
  name: "Const_1"
  op: "Const"
  input: "^TPUReplicateMetadata"
  attr {
    key: "_output_shapes"
    value {
      list {
        shape {
        }
      }
    }
  }
  attr {
    key: "_tpu_replicate"
    value {
      s: "cluster"
    }
  }
  attr {
    key: "dtype"
    value {
      type: DT_FLOAT
    }
  }
  attr {
    key: "value"
    value {
      tensor {
        dtype: DT_FLOAT
        tensor_shape {
        }
        float_val: 10000000.0
      }
    }
  }
}
node {
  name: "Enter"
  op: "Enter"
  input: "Const"
  attr {
    key: "T"
    value {
      type: DT_INT32
    }
  }
  attr {
    key: "_output_shapes"
    value {
      list {
        shape {
        }
      }
    }
  }
  attr {
    key: "_tpu_replicate"
    value {
      s: "cluster"
    }
  }
  attr {
    key: "frame_name"
    value {
      s: "while_context"
    }
  }
  attr {
    key: "is_constant"
    value {
      b: false
    }
  }
  attr {
    key: "parallel_iterations"
    value {
      i: 1
    }
  }
}
node {
  name: "Enter_1"
  op: "Enter"
  input: "Const_1"
  attr {
    key: "T"
    value {
      type: DT_FLOAT
    }
  }
  attr {
    key: "_output_shapes"
    value {
      list {
        shape {
        }
      }
    }
  }
  attr {
    key: "_tpu_replicate"
    value {
      s: "cluster"
    }
  }
  attr {
    key: "frame_name"
    value {
      s: "while_context"
    }
  }
  attr {
    key: "is_constant"
    value {
      b: false
    }
  }
  attr {
    key: "parallel_iterations"
    value {
      i: 1
    }
  }
}
node {
  name: "Merge"
  op: "Merge"
  input: "Enter"
  input: "NextIteration"
  attr {
    key: "N"
    value {
      i: 2
    }
  }
  attr {
    key: "T"
    value {
      type: DT_INT32
    }
  }
  attr {
    key: "_output_shapes"
    value {
      list {
        shape {
        }
        shape {
        }
      }
    }
  }
  attr {
    key: "_tpu_replicate"
    value {
      s: "cluster"
    }
  }
}
node {
  name: "Merge_1"
  op: "Merge"
  input: "Enter_1"
  input: "NextIteration_1"
  attr {
    key: "N"
    value {
      i: 2
    }
  }
  attr {
    key: "T"
    value {
      type: DT_FLOAT
    }
  }
  attr {
    key: "_output_shapes"
    value {
      list {
        shape {
        }
        shape {
        }
      }
    }
  }
  attr {
    key: "_tpu_replicate"
    value {
      s: "cluster"
    }
  }
}
node {
  name: "Less/ReadVariableOp"
  op: "ReadVariableOp"
  input: "Less/ReadVariableOp/Enter"
  input: "^Merge"
  attr {
    key: "_output_shapes"
    value {
      list {
        shape {
        }
      }
    }
  }
  attr {
    key: "_tpu_replicate"
    value {
      s: "cluster"
    }
  }
  attr {
    key: "dtype"
    value {
      type: DT_INT32
    }
  }
}
node {
  name: "Less/ReadVariableOp/Enter"
  op: "Enter"
  input: "tpu_estimator/iterations_per_loop"
  input: "^TPUReplicateMetadata"
  attr {
    key: "T"
    value {
      type: DT_RESOURCE
    }
  }
  attr {
    key: "_output_shapes"
    value {
      list {
        shape {
        }
      }
    }
  }
  attr {
    key: "_tpu_replicate"
    value {
      s: "cluster"
    }
  }
  attr {
    key: "frame_name"
    value {
      s: "while_context"
    }
  }
  attr {
    key: "is_constant"
    value {
      b: true
    }
  }
  attr {
    key: "parallel_iterations"
    value {
      i: 1
    }
  }
}
node {
  name: "Less"
  op: "Less"
  input: "Merge"
  input: "Less/ReadVariableOp"
  attr {
    key: "T"
    value {
      type: DT_INT32
    }
  }
  attr {
    key: "_output_shapes"
    value {
      list {
        shape {
        }
      }
    }
  }
  attr {
    key: "_tpu_replicate"
    value {
      s: "cluster"
    }
  }
}
node {
  name: "LoopCond"
  op: "LoopCond"
  input: "Less"
  attr {
    key: "_output_shapes"
    value {
      list {
        shape {
        }
      }
    }
  }
  attr {
    key: "_tpu_replicate"
    value {
      s: "cluster"
    }
  }
}
node {
  name: "Switch"
  op: "Switch"
  input: "Merge"
  input: "LoopCond"
  attr {
    key: "T"
    value {
      type: DT_INT32
    }
  }
  attr {
    key: "_class"
    value {
      list {
        s: "loc:@Merge"
      }
    }
  }
  attr {
    key: "_output_shapes"
    value {
      list {
        shape {
        }
        shape {
        }
      }
    }
  }
  attr {
    key: "_tpu_replicate"
    value {
      s: "cluster"
    }
  }
}
node {
  name: "Switch_1"
  op: "Switch"
  input: "Merge_1"
  input: "LoopCond"
  attr {
    key: "T"
    value {
      type: DT_FLOAT
    }
  }
  attr {
    key: "_class"
    value {
      list {
        s: "loc:@Merge_1"
      }
    }
  }
  attr {
    key: "_output_shapes"
    value {
      list {
        shape {
        }
        shape {
        }
      }
    }
  }
  attr {
    key: "_tpu_replicate"
    value {
      s: "cluster"
    }
  }
}
node {
  name: "Identity"
  op: "Identity"
  input: "Switch:1"
  attr {
    key: "T"
    value {
      type: DT_INT32
    }
  }
  attr {
    key: "_output_shapes"
    value {
      list {
        shape {
        }
      }
    }
  }
  attr {
    key: "_tpu_replicate"
    value {
      s: "cluster"
    }
  }
}
node {
  name: "Identity_1"
  op: "Identity"
  input: "Switch_1:1"
  attr {
    key: "T"
    value {
      type: DT_FLOAT
    }
  }
  attr {
    key: "_output_shapes"
    value {
      list {
        shape {
        }
      }
    }
  }
  attr {
    key: "_tpu_replicate"
    value {
      s: "cluster"
    }
  }
}
node {
  name: "add/y"
  op: "Const"
  input: "^Identity"
  attr {
    key: "_output_shapes"
    value {
      list {
        shape {
        }
      }
    }
  }
  attr {
    key: "_tpu_replicate"
    value {
      s: "cluster"
    }
  }
  attr {
    key: "dtype"
    value {
      type: DT_INT32
    }
  }
  attr {
    key: "value"
    value {
      tensor {
        dtype: DT_INT32
        tensor_shape {
        }
        int_val: 1
      }
    }
  }
}
node {
  name: "add"
  op: "Add"
  input: "Identity"
  input: "add/y"
  attr {
    key: "T"
    value {
      type: DT_INT32
    }
  }
  attr {
    key: "_output_shapes"
    value {
      list {
        shape {
        }
      }
    }
  }
  attr {
    key: "_tpu_replicate"
    value {
      s: "cluster"
    }
  }
}
node {
  name: "InfeedQueue/dequeue"
  op: "InfeedDequeueTuple"
  input: "^Identity"
  device: "/device:TPU_REPLICATED_CORE:0"
  attr {
    key: "_output_shapes"
    value {
      list {
        shape {
          dim {
            size: 256
          }
          dim {
            size: 128
          }
        }
        shape {
          dim {
            size: 256
          }
          dim {
            size: 32
          }
          dim {
            size: 32
          }
          dim {
            size: 3
          }
        }
      }
    }
  }
  attr {
    key: "_tpu_replicate"
    value {
      s: "cluster"
    }
  }
  attr {
    key: "dtypes"
    value {
      list {
        type: DT_FLOAT
        type: DT_FLOAT
      }
    }
  }
  attr {
    key: "shapes"
    value {
      list {
        shape {
          dim {
            size: 256
          }
          dim {
            size: 128
          }
        }
        shape {
          dim {
            size: 256
          }
          dim {
            size: 32
          }
          dim {
            size: 32
          }
          dim {
            size: 3
          }
        }
      }
    }
  }
}
node {
  name: "Const_2"
  op: "Const"
  input: "^Identity"
  attr {
    key: "_output_shapes"
    value {
      list {
        shape {
        }
      }
    }
  }
  attr {
    key: "_tpu_replicate"
    value {
      s: "cluster"
    }
  }
  attr {
    key: "dtype"
    value {
      type: DT_INT32
    }
  }
  attr {
    key: "value"
    value {
      tensor {
        dtype: DT_INT32
        tensor_shape {
        }
        int_val: 2
      }
    }
  }
}
node {
  name: "split/split_dim"
  op: "Const"
  input: "^Identity"
  attr {
    key: "_output_shapes"
    value {
      list {
        shape {
        }
      }
    }
  }
  attr {
    key: "_tpu_replicate"
    value {
      s: "cluster"
    }
  }
  attr {
    key: "dtype"
    value {
      type: DT_INT32
    }
  }
  attr {
    key: "value"
    value {
      tensor {
        dtype: DT_INT32
        tensor_shape {
        }
        int_val: 0
      }
    }
  }
}
node {
  name: "split"
  op: "Split"
  input: "split/split_dim"
  input: "InfeedQueue/dequeue:1"
  attr {
    key: "T"
    value {
      type: DT_FLOAT
    }
  }
  attr {
    key: "_output_shapes"
    value {
      list {
        shape {
          dim {
            size: 128
          }
          dim {
            size: 32
          }
          dim {
            size: 32
          }
          dim {
            size: 3
          }
        }
        shape {
          dim {
            size: 128
          }
          dim {
            size: 32
          }
          dim {
            size: 32
          }
          dim {
            size: 3
          }
        }
      }
    }
  }
  attr {
    key: "_tpu_replicate"
    value {
      s: "cluster"
    }
  }
  attr {
    key: "num_split"
    value {
      i: 2
    }
  }
}
node {
  name: "Const_3"
  op: "Const"
  input: "^Identity"
  attr {
    key: "_output_shapes"
    value {
      list {
        shape {
        }
      }
    }
  }
  attr {
    key: "_tpu_replicate"
    value {
      s: "cluster"
    }
  }
  attr {
    key: "dtype"
    value {
      type: DT_INT32
    }
  }
  attr {
    key: "value"
    value {
      tensor {
        dtype: DT_INT32
        tensor_shape {
        }
        int_val: 2
      }
    }
  }
}
node {
  name: "split_1/split_dim"
  op: "Const"
  input: "^Identity"
  attr {
    key: "_output_shapes"
    value {
      list {
        shape {
        }
      }
    }
  }
  attr {
    key: "_tpu_replicate"
    value {
      s: "cluster"
    }
  }
  attr {
    key: "dtype"
    value {
      type: DT_INT32
    }
  }
  attr {
    key: "value"
    value {
      tensor {
        dtype: DT_INT32
        tensor_shape {
        }
        int_val: 0
      }
    }
  }
}
node {
  name: "split_1"
  op: "Split"
  input: "split_1/split_dim"
  input: "InfeedQueue/dequeue"
  attr {
    key: "T"
    value {
      type: DT_FLOAT
    }
  }
  attr {
    key: "_output_shapes"
    value {
      list {
        shape {
          dim {
            size: 128
          }
          dim {
            size: 128
          }
        }
        shape {
          dim {
            size: 128
          }
          dim {
            size: 128
          }
        }
      }
    }
  }
  attr {
    key: "_tpu_replicate"
    value {
      s: "cluster"
    }
  }
  attr {
    key: "num_split"
    value {
      i: 2
    }
  }
}
node {
  name: "Generator/generator/g_fc1/kernel/Initializer/truncated_normal/shape"
  op: "Const"
  attr {
    key: "_class"
    value {
      list {
        s: "loc:@Generator/generator/g_fc1/kernel"
      }
    }
  }
  attr {
    key: "_output_shapes"
    value {
      list {
        shape {
          dim {
            size: 2
          }
        }
      }
    }
  }
  attr {
    key: "dtype"
    value {
      type: DT_INT32
    }
  }
  attr {
    key: "value"
    value {
      tensor {
        dtype: DT_INT32
        tensor_shape {
          dim {
            size: 2
          }
        }
        tensor_content: "\200\000\000\000\000\001\000\000"
      }
    }
  }
}
node {
  name: "Generator/generator/g_fc1/kernel/Initializer/truncated_normal/mean"
  op: "Const"
  attr {
    key: "_class"
    value {
      list {
        s: "loc:@Generator/generator/g_fc1/kernel"
      }
    }
  }
  attr {
    key: "_output_shapes"
    value {
      list {
        shape {
        }
      }
    }
  }
  attr {
    key: "dtype"
    value {
      type: DT_FLOAT
    }
  }
  attr {
    key: "value"
    value {
      tensor {
        dtype: DT_FLOAT
        tensor_shape {
        }
        float_val: 0.0
      }
    }
  }
}
node {
  name: "Generator/generator/g_fc1/kernel/Initializer/truncated_normal/stddev"
  op: "Const"
  attr {
    key: "_class"
    value {
      list {
        s: "loc:@Generator/generator/g_fc1/kernel"
      }
    }
  }
  attr {
    key: "_output_shapes"
    value {
      list {
        shape {
        }
      }
    }
  }
  attr {
    key: "dtype"
    value {
      type: DT_FLOAT
    }
  }
  attr {
    key: "value"
    value {
      tensor {
        dtype: DT_FLOAT
        tensor_shape {
        }
        float_val: 0.019999999552965164
      }
    }
  }
}
node {
  name: "Generator/generator/g_fc1/kernel/Initializer/truncated_normal/TruncatedNormal"
  op: "TruncatedNormal"
  input: "Generator/generator/g_fc1/kernel/Initializer/truncated_normal/shape"
  attr {
    key: "T"
    value {
      type: DT_INT32
    }
  }
  attr {
    key: "_class"
    value {
      list {
        s: "loc:@Generator/generator/g_fc1/kernel"
      }
    }
  }
  attr {
    key: "_output_shapes"
    value {
      list {
        shape {
          dim {
            size: 128
          }
          dim {
            size: 256
          }
        }
      }
    }
  }
  attr {
    key: "dtype"
    value {
      type: DT_FLOAT
    }
  }
  attr {
    key: "seed"
    value {
      i: 0
    }
  }
  attr {
    key: "seed2"
    value {
      i: 0
    }
  }
}
node {
  name: "Generator/generator/g_fc1/kernel/Initializer/truncated_normal/mul"
  op: "Mul"
  input: "Generator/generator/g_fc1/kernel/Initializer/truncated_normal/TruncatedNormal"
  input: "Generator/generator/g_fc1/kernel/Initializer/truncated_normal/stddev"
  attr {
    key: "T"
    value {
      type: DT_FLOAT
    }
  }
  attr {
    key: "_class"
    value {
      list {
        s: "loc:@Generator/generator/g_fc1/kernel"
      }
    }
  }
  attr {
    key: "_output_shapes"
    value {
      list {
        shape {
          dim {
            size: 128
          }
          dim {
            size: 256
          }
        }
      }
    }
  }
}
node {
  name: "Generator/generator/g_fc1/kernel/Initializer/truncated_normal"
  op: "Add"
  input: "Generator/generator/g_fc1/kernel/Initializer/truncated_normal/mul"
  input: "Generator/generator/g_fc1/kernel/Initializer/truncated_normal/mean"
  attr {
    key: "T"
    value {
      type: DT_FLOAT
    }
  }
  attr {
    key: "_class"
    value {
      list {
        s: "loc:@Generator/generator/g_fc1/kernel"
      }
    }
  }
  attr {
    key: "_output_shapes"
    value {
      list {
        shape {
          dim {
            size: 128
          }
          dim {
            size: 256
          }
        }
      }
    }
  }
}
node {
  name: "Generator/generator/g_fc1/kernel"
  op: "VarHandleOp"
  attr {
    key: "_class"
    value {
      list {
        s: "loc:@Generator/generator/g_fc1/kernel"
      }
    }
  }
  attr {
    key: "_output_shapes"
    value {
      list {
        shape {
        }
      }
    }
  }
  attr {
    key: "container"
    value {
      s: ""
    }
  }
  attr {
    key: "dtype"
    value {
      type: DT_FLOAT
    }
  }
  attr {
    key: "shape"
    value {
      shape {
        dim {
          size: 128
        }
        dim {
          size: 256
        }
      }
    }
  }
  attr {
    key: "shared_name"
    value {
      s: "Generator/generator/g_fc1/kernel"
    }
  }
}
node {
  name: "Generator/generator/g_fc1/kernel/IsInitialized/VarIsInitializedOp"
  op: "VarIsInitializedOp"
  input: "Generator/generator/g_fc1/kernel"
  attr {
    key: "_output_shapes"
    value {
      list {
        shape {
        }
      }
    }
  }
}
node {
  name: "Generator/generator/g_fc1/kernel/Assign"
  op: "AssignVariableOp"
  input: "Generator/generator/g_fc1/kernel"
  input: "Generator/generator/g_fc1/kernel/Initializer/truncated_normal"
  attr {
    key: "_class"
    value {
      list {
        s: "loc:@Generator/generator/g_fc1/kernel"
      }
    }
  }
  attr {
    key: "dtype"
    value {
      type: DT_FLOAT
    }
  }
}
node {
  name: "Generator/generator/g_fc1/kernel/Read/ReadVariableOp"
  op: "ReadVariableOp"
  input: "Generator/generator/g_fc1/kernel"
  attr {
    key: "_class"
    value {
      list {
        s: "loc:@Generator/generator/g_fc1/kernel"
      }
    }
  }
  attr {
    key: "_output_shapes"
    value {
      list {
        shape {
          dim {
            size: 128
          }
          dim {
            size: 256
          }
        }
      }
    }
  }
  attr {
    key: "dtype"
    value {
      type: DT_FLOAT
    }
  }
}
node {
  name: "Generator/generator/g_fc1/bias/Initializer/zeros"
  op: "Const"
  attr {
    key: "_class"
    value {
      list {
        s: "loc:@Generator/generator/g_fc1/bias"
      }
    }
  }
  attr {
    key: "_output_shapes"
    value {
      list {
        shape {
          dim {
            size: 256
          }
        }
      }
    }
  }
  attr {
    key: "dtype"
    value {
      type: DT_FLOAT
    }
  }
  attr {
    key: "value"
    value {
      tensor {
        dtype: DT_FLOAT
        tensor_shape {
          dim {
            size: 256
          }
        }
        float_val: 0.0
      }
    }
  }
}
node {
  name: "Generator/generator/g_fc1/bias"
  op: "VarHandleOp"
  attr {
    key: "_class"
    value {
      list {
        s: "loc:@Generator/generator/g_fc1/bias"
      }
    }
  }
  attr {
    key: "_output_shapes"
    value {
      list {
        shape {
        }
      }
    }
  }
  attr {
    key: "container"
    value {
      s: ""
    }
  }
  attr {
    key: "dtype"
    value {
      type: DT_FLOAT
    }
  }
  attr {
    key: "shape"
    value {
      shape {
        dim {
          size: 256
        }
      }
    }
  }
  attr {
    key: "shared_name"
    value {
      s: "Generator/generator/g_fc1/bias"
    }
  }
}
node {
  name: "Generator/generator/g_fc1/bias/IsInitialized/VarIsInitializedOp"
  op: "VarIsInitializedOp"
  input: "Generator/generator/g_fc1/bias"
  attr {
    key: "_output_shapes"
    value {
      list {
        shape {
        }
      }
    }
  }
}
node {
  name: "Generator/generator/g_fc1/bias/Assign"
  op: "AssignVariableOp"
  input: "Generator/generator/g_fc1/bias"
  input: "Generator/generator/g_fc1/bias/Initializer/zeros"
  attr {
    key: "_class"
    value {
      list {
        s: "loc:@Generator/generator/g_fc1/bias"
      }
    }
  }
  attr {
    key: "dtype"
    value {
      type: DT_FLOAT
    }
  }
}
node {
  name: "Generator/generator/g_fc1/bias/Read/ReadVariableOp"
  op: "ReadVariableOp"
  input: "Generator/generator/g_fc1/bias"
  attr {
    key: "_class"
    value {
      list {
        s: "loc:@Generator/generator/g_fc1/bias"
      }
    }
  }
  attr {
    key: "_output_shapes"
    value {
      list {
        shape {
          dim {
            size: 256
          }
        }
      }
    }
  }
  attr {
    key: "dtype"
    value {
      type: DT_FLOAT
    }
  }
}
node {
  name: "Generator/generator/g_fc1/MatMul/ReadVariableOp"
  op: "ReadVariableOp"
  input: "Generator/generator/g_fc1/MatMul/ReadVariableOp/Enter"
  input: "^Identity"
  attr {
    key: "_output_shapes"
    value {
      list {
        shape {
          dim {
            size: 128
          }
          dim {
            size: 256
          }
        }
      }
    }
  }
  attr {
    key: "_tpu_replicate"
    value {
      s: "cluster"
    }
  }
  attr {
    key: "dtype"
    value {
      type: DT_FLOAT
    }
  }
}
node {
  name: "Generator/generator/g_fc1/MatMul/ReadVariableOp/Enter"
  op: "Enter"
  input: "Generator/generator/g_fc1/kernel"
  input: "^TPUReplicateMetadata"
  attr {
    key: "T"
    value {
      type: DT_RESOURCE
    }
  }
  attr {
    key: "_output_shapes"
    value {
      list {
        shape {
        }
      }
    }
  }
  attr {
    key: "_tpu_replicate"
    value {
      s: "cluster"
    }
  }
  attr {
    key: "frame_name"
    value {
      s: "while_context"
    }
  }
  attr {
    key: "is_constant"
    value {
      b: true
    }
  }
  attr {
    key: "parallel_iterations"
    value {
      i: 1
    }
  }
}
node {
  name: "Generator/generator/g_fc1/MatMul"
  op: "MatMul"
  input: "split_1"
  input: "Generator/generator/g_fc1/MatMul/ReadVariableOp"
  attr {
    key: "T"
    value {
      type: DT_FLOAT
    }
  }
  attr {
    key: "_output_shapes"
    value {
      list {
        shape {
          dim {
            size: 128
          }
          dim {
            size: 256
          }
        }
      }
    }
  }
  attr {
    key: "_tpu_replicate"
    value {
      s: "cluster"
    }
  }
  attr {
    key: "transpose_a"
    value {
      b: false
    }
  }
  attr {
    key: "transpose_b"
    value {
      b: false
    }
  }
}
node {
  name: "Generator/generator/g_fc1/BiasAdd/ReadVariableOp"
  op: "ReadVariableOp"
  input: "Generator/generator/g_fc1/BiasAdd/ReadVariableOp/Enter"
  input: "^Identity"
  attr {
    key: "_output_shapes"
    value {
      list {
        shape {
          dim {
            size: 256
          }
        }
      }
    }
  }
  attr {
    key: "_tpu_replicate"
    value {
      s: "cluster"
    }
  }
  attr {
    key: "dtype"
    value {
      type: DT_FLOAT
    }
  }
}
node {
  name: "Generator/generator/g_fc1/BiasAdd/ReadVariableOp/Enter"
  op: "Enter"
  input: "Generator/generator/g_fc1/bias"
  input: "^TPUReplicateMetadata"
  attr {
    key: "T"
    value {
      type: DT_RESOURCE
    }
  }
  attr {
    key: "_output_shapes"
    value {
      list {
        shape {
        }
      }
    }
  }
  attr {
    key: "_tpu_replicate"
    value {
      s: "cluster"
    }
  }
  attr {
    key: "frame_name"
    value {
      s: "while_context"
    }
  }
  attr {
    key: "is_constant"
    value {
      b: true
    }
  }
  attr {
    key: "parallel_iterations"
    value {
      i: 1
    }
  }
}
node {
  name: "Generator/generator/g_fc1/BiasAdd"
  op: "BiasAdd"
  input: "Generator/generator/g_fc1/MatMul"
  input: "Generator/generator/g_fc1/BiasAdd/ReadVariableOp"
  attr {
    key: "T"
    value {
      type: DT_FLOAT
    }
  }
  attr {
    key: "_output_shapes"
    value {
      list {
        shape {
          dim {
            size: 128
          }
          dim {
            size: 256
          }
        }
      }
    }
  }
  attr {
    key: "_tpu_replicate"
    value {
      s: "cluster"
    }
  }
  attr {
    key: "data_format"
    value {
      s: "NHWC"
    }
  }
}
node {
  name: "Generator/generator/dropout/dropout/rate"
  op: "Const"
  input: "^Identity"
  attr {
    key: "_output_shapes"
    value {
      list {
        shape {
        }
      }
    }
  }
  attr {
    key: "_tpu_replicate"
    value {
      s: "cluster"
    }
  }
  attr {
    key: "dtype"
    value {
      type: DT_FLOAT
    }
  }
  attr {
    key: "value"
    value {
      tensor {
        dtype: DT_FLOAT
        tensor_shape {
        }
        float_val: 0.25
      }
    }
  }
}
node {
  name: "Generator/generator/dropout/dropout/Shape"
  op: "Const"
  input: "^Identity"
  attr {
    key: "_output_shapes"
    value {
      list {
        shape {
          dim {
            size: 2
          }
        }
      }
    }
  }
  attr {
    key: "_tpu_replicate"
    value {
      s: "cluster"
    }
  }
  attr {
    key: "dtype"
    value {
      type: DT_INT32
    }
  }
  attr {
    key: "value"
    value {
      tensor {
        dtype: DT_INT32
        tensor_shape {
          dim {
            size: 2
          }
        }
        tensor_content: "\200\000\000\000\000\001\000\000"
      }
    }
  }
}
node {
  name: "Generator/generator/dropout/dropout/sub/x"
  op: "Const"
  input: "^Identity"
  attr {
    key: "_output_shapes"
    value {
      list {
        shape {
        }
      }
    }
  }
  attr {
    key: "_tpu_replicate"
    value {
      s: "cluster"
    }
  }
  attr {
    key: "dtype"
    value {
      type: DT_FLOAT
    }
  }
  attr {
    key: "value"
    value {
      tensor {
        dtype: DT_FLOAT
        tensor_shape {
        }
        float_val: 1.0
      }
    }
  }
}
node {
  name: "Generator/generator/dropout/dropout/sub"
  op: "Sub"
  input: "Generator/generator/dropout/dropout/sub/x"
  input: "Generator/generator/dropout/dropout/rate"
  attr {
    key: "T"
    value {
      type: DT_FLOAT
    }
  }
  attr {
    key: "_output_shapes"
    value {
      list {
        shape {
        }
      }
    }
  }
  attr {
    key: "_tpu_replicate"
    value {
      s: "cluster"
    }
  }
}
node {
  name: "Generator/generator/dropout/dropout/random_uniform/min"
  op: "Const"
  input: "^Identity"
  attr {
    key: "_output_shapes"
    value {
      list {
        shape {
        }
      }
    }
  }
  attr {
    key: "_tpu_replicate"
    value {
      s: "cluster"
    }
  }
  attr {
    key: "dtype"
    value {
      type: DT_FLOAT
    }
  }
  attr {
    key: "value"
    value {
      tensor {
        dtype: DT_FLOAT
        tensor_shape {
        }
        float_val: 0.0
      }
    }
  }
}
node {
  name: "Generator/generator/dropout/dropout/random_uniform/max"
  op: "Const"
  input: "^Identity"
  attr {
    key: "_output_shapes"
    value {
      list {
        shape {
        }
      }
    }
  }
  attr {
    key: "_tpu_replicate"
    value {
      s: "cluster"
    }
  }
  attr {
    key: "dtype"
    value {
      type: DT_FLOAT
    }
  }
  attr {
    key: "value"
    value {
      tensor {
        dtype: DT_FLOAT
        tensor_shape {
        }
        float_val: 1.0
      }
    }
  }
}
node {
  name: "Generator/generator/dropout/dropout/random_uniform/RandomUniform"
  op: "RandomUniform"
  input: "Generator/generator/dropout/dropout/Shape"
  attr {
    key: "T"
    value {
      type: DT_INT32
    }
  }
  attr {
    key: "_output_shapes"
    value {
      list {
        shape {
          dim {
            size: 128
          }
          dim {
            size: 256
          }
        }
      }
    }
  }
  attr {
    key: "_tpu_replicate"
    value {
      s: "cluster"
    }
  }
  attr {
    key: "dtype"
    value {
      type: DT_FLOAT
    }
  }
  attr {
    key: "seed"
    value {
      i: 0
    }
  }
  attr {
    key: "seed2"
    value {
      i: 0
    }
  }
}
node {
  name: "Generator/generator/dropout/dropout/random_uniform/sub"
  op: "Sub"
  input: "Generator/generator/dropout/dropout/random_uniform/max"
  input: "Generator/generator/dropout/dropout/random_uniform/min"
  attr {
    key: "T"
    value {
      type: DT_FLOAT
    }
  }
  attr {
    key: "_output_shapes"
    value {
      list {
        shape {
        }
      }
    }
  }
  attr {
    key: "_tpu_replicate"
    value {
      s: "cluster"
    }
  }
}
node {
  name: "Generator/generator/dropout/dropout/random_uniform/mul"
  op: "Mul"
  input: "Generator/generator/dropout/dropout/random_uniform/RandomUniform"
  input: "Generator/generator/dropout/dropout/random_uniform/sub"
  attr {
    key: "T"
    value {
      type: DT_FLOAT
    }
  }
  attr {
    key: "_output_shapes"
    value {
      list {
        shape {
          dim {
            size: 128
          }
          dim {
            size: 256
          }
        }
      }
    }
  }
  attr {
    key: "_tpu_replicate"
    value {
      s: "cluster"
    }
  }
}
node {
  name: "Generator/generator/dropout/dropout/random_uniform"
  op: "Add"
  input: "Generator/generator/dropout/dropout/random_uniform/mul"
  input: "Generator/generator/dropout/dropout/random_uniform/min"
  attr {
    key: "T"
    value {
      type: DT_FLOAT
    }
  }
  attr {
    key: "_output_shapes"
    value {
      list {
        shape {
          dim {
            size: 128
          }
          dim {
            size: 256
          }
        }
      }
    }
  }
  attr {
    key: "_tpu_replicate"
    value {
      s: "cluster"
    }
  }
}
node {
  name: "Generator/generator/dropout/dropout/add"
  op: "Add"
  input: "Generator/generator/dropout/dropout/sub"
  input: "Generator/generator/dropout/dropout/random_uniform"
  attr {
    key: "T"
    value {
      type: DT_FLOAT
    }
  }
  attr {
    key: "_output_shapes"
    value {
      list {
        shape {
          dim {
            size: 128
          }
          dim {
            size: 256
          }
        }
      }
    }
  }
  attr {
    key: "_tpu_replicate"
    value {
      s: "cluster"
    }
  }
}
node {
  name: "Generator/generator/dropout/dropout/Floor"
  op: "Floor"
  input: "Generator/generator/dropout/dropout/add"
  attr {
    key: "T"
    value {
      type: DT_FLOAT
    }
  }
  attr {
    key: "_output_shapes"
    value {
      list {
        shape {
          dim {
            size: 128
          }
          dim {
            size: 256
          }
        }
      }
    }
  }
  attr {
    key: "_tpu_replicate"
    value {
      s: "cluster"
    }
  }
}
node {
  name: "Generator/generator/dropout/dropout/truediv"
  op: "RealDiv"
  input: "Generator/generator/g_fc1/BiasAdd"
  input: "Generator/generator/dropout/dropout/sub"
  attr {
    key: "T"
    value {
      type: DT_FLOAT
    }
  }
  attr {
    key: "_output_shapes"
    value {
      list {
        shape {
          dim {
            size: 128
          }
          dim {
            size: 256
          }
        }
      }
    }
  }
  attr {
    key: "_tpu_replicate"
    value {
      s: "cluster"
    }
  }
}
node {
  name: "Generator/generator/dropout/dropout/mul"
  op: "Mul"
  input: "Generator/generator/dropout/dropout/truediv"
  input: "Generator/generator/dropout/dropout/Floor"
  attr {
    key: "T"
    value {
      type: DT_FLOAT
    }
  }
  attr {
    key: "_output_shapes"
    value {
      list {
        shape {
          dim {
            size: 128
          }
          dim {
            size: 256
          }
        }
      }
    }
  }
  attr {
    key: "_tpu_replicate"
    value {
      s: "cluster"
    }
  }
}
node {
  name: "Generator/generator/Tanh"
  op: "Tanh"
  input: "Generator/generator/dropout/dropout/mul"
  attr {
    key: "T"
    value {
      type: DT_FLOAT
    }
  }
  attr {
    key: "_output_shapes"
    value {
      list {
        shape {
          dim {
            size: 128
          }
          dim {
            size: 256
          }
        }
      }
    }
  }
  attr {
    key: "_tpu_replicate"
    value {
      s: "cluster"
    }
  }
}
node {
  name: "Generator/generator/g_fc2/kernel/Initializer/truncated_normal/shape"
  op: "Const"
  attr {
    key: "_class"
    value {
      list {
        s: "loc:@Generator/generator/g_fc2/kernel"
      }
    }
  }
  attr {
    key: "_output_shapes"
    value {
      list {
        shape {
          dim {
            size: 2
          }
        }
      }
    }
  }
  attr {
    key: "dtype"
    value {
      type: DT_INT32
    }
  }
  attr {
    key: "value"
    value {
      tensor {
        dtype: DT_INT32
        tensor_shape {
          dim {
            size: 2
          }
        }
        tensor_content: "\000\001\000\000\000\014\000\000"
      }
    }
  }
}
node {
  name: "Generator/generator/g_fc2/kernel/Initializer/truncated_normal/mean"
  op: "Const"
  attr {
    key: "_class"
    value {
      list {
        s: "loc:@Generator/generator/g_fc2/kernel"
      }
    }
  }
  attr {
    key: "_output_shapes"
    value {
      list {
        shape {
        }
      }
    }
  }
  attr {
    key: "dtype"
    value {
      type: DT_FLOAT
    }
  }
  attr {
    key: "value"
    value {
      tensor {
        dtype: DT_FLOAT
        tensor_shape {
        }
        float_val: 0.0
      }
    }
  }
}
node {
  name: "Generator/generator/g_fc2/kernel/Initializer/truncated_normal/stddev"
  op: "Const"
  attr {
    key: "_class"
    value {
      list {
        s: "loc:@Generator/generator/g_fc2/kernel"
      }
    }
  }
  attr {
    key: "_output_shapes"
    value {
      list {
        shape {
        }
      }
    }
  }
  attr {
    key: "dtype"
    value {
      type: DT_FLOAT
    }
  }
  attr {
    key: "value"
    value {
      tensor {
        dtype: DT_FLOAT
        tensor_shape {
        }
        float_val: 0.019999999552965164
      }
    }
  }
}
node {
  name: "Generator/generator/g_fc2/kernel/Initializer/truncated_normal/TruncatedNormal"
  op: "TruncatedNormal"
  input: "Generator/generator/g_fc2/kernel/Initializer/truncated_normal/shape"
  attr {
    key: "T"
    value {
      type: DT_INT32
    }
  }
  attr {
    key: "_class"
    value {
      list {
        s: "loc:@Generator/generator/g_fc2/kernel"
      }
    }
  }
  attr {
    key: "_output_shapes"
    value {
      list {
        shape {
          dim {
            size: 256
          }
          dim {
            size: 3072
          }
        }
      }
    }
  }
  attr {
    key: "dtype"
    value {
      type: DT_FLOAT
    }
  }
  attr {
    key: "seed"
    value {
      i: 0
    }
  }
  attr {
    key: "seed2"
    value {
      i: 0
    }
  }
}
node {
  name: "Generator/generator/g_fc2/kernel/Initializer/truncated_normal/mul"
  op: "Mul"
  input: "Generator/generator/g_fc2/kernel/Initializer/truncated_normal/TruncatedNormal"
  input: "Generator/generator/g_fc2/kernel/Initializer/truncated_normal/stddev"
  attr {
    key: "T"
    value {
      type: DT_FLOAT
    }
  }
  attr {
    key: "_class"
    value {
      list {
        s: "loc:@Generator/generator/g_fc2/kernel"
      }
    }
  }
  attr {
    key: "_output_shapes"
    value {
      list {
        shape {
          dim {
            size: 256
          }
          dim {
            size: 3072
          }
        }
      }
    }
  }
}
node {
  name: "Generator/generator/g_fc2/kernel/Initializer/truncated_normal"
  op: "Add"
  input: "Generator/generator/g_fc2/kernel/Initializer/truncated_normal/mul"
  input: "Generator/generator/g_fc2/kernel/Initializer/truncated_normal/mean"
  attr {
    key: "T"
    value {
      type: DT_FLOAT
    }
  }
  attr {
    key: "_class"
    value {
      list {
        s: "loc:@Generator/generator/g_fc2/kernel"
      }
    }
  }
  attr {
    key: "_output_shapes"
    value {
      list {
        shape {
          dim {
            size: 256
          }
          dim {
            size: 3072
          }
        }
      }
    }
  }
}
node {
  name: "Generator/generator/g_fc2/kernel"
  op: "VarHandleOp"
  attr {
    key: "_class"
    value {
      list {
        s: "loc:@Generator/generator/g_fc2/kernel"
      }
    }
  }
  attr {
    key: "_output_shapes"
    value {
      list {
        shape {
        }
      }
    }
  }
  attr {
    key: "container"
    value {
      s: ""
    }
  }
  attr {
    key: "dtype"
    value {
      type: DT_FLOAT
    }
  }
  attr {
    key: "shape"
    value {
      shape {
        dim {
          size: 256
        }
        dim {
          size: 3072
        }
      }
    }
  }
  attr {
    key: "shared_name"
    value {
      s: "Generator/generator/g_fc2/kernel"
    }
  }
}
node {
  name: "Generator/generator/g_fc2/kernel/IsInitialized/VarIsInitializedOp"
  op: "VarIsInitializedOp"
  input: "Generator/generator/g_fc2/kernel"
  attr {
    key: "_output_shapes"
    value {
      list {
        shape {
        }
      }
    }
  }
}
node {
  name: "Generator/generator/g_fc2/kernel/Assign"
  op: "AssignVariableOp"
  input: "Generator/generator/g_fc2/kernel"
  input: "Generator/generator/g_fc2/kernel/Initializer/truncated_normal"
  attr {
    key: "_class"
    value {
      list {
        s: "loc:@Generator/generator/g_fc2/kernel"
      }
    }
  }
  attr {
    key: "dtype"
    value {
      type: DT_FLOAT
    }
  }
}
node {
  name: "Generator/generator/g_fc2/kernel/Read/ReadVariableOp"
  op: "ReadVariableOp"
  input: "Generator/generator/g_fc2/kernel"
  attr {
    key: "_class"
    value {
      list {
        s: "loc:@Generator/generator/g_fc2/kernel"
      }
    }
  }
  attr {
    key: "_output_shapes"
    value {
      list {
        shape {
          dim {
            size: 256
          }
          dim {
            size: 3072
          }
        }
      }
    }
  }
  attr {
    key: "dtype"
    value {
      type: DT_FLOAT
    }
  }
}
node {
  name: "Generator/generator/g_fc2/bias/Initializer/zeros/shape_as_tensor"
  op: "Const"
  attr {
    key: "_class"
    value {
      list {
        s: "loc:@Generator/generator/g_fc2/bias"
      }
    }
  }
  attr {
    key: "_output_shapes"
    value {
      list {
        shape {
          dim {
            size: 1
          }
        }
      }
    }
  }
  attr {
    key: "dtype"
    value {
      type: DT_INT32
    }
  }
  attr {
    key: "value"
    value {
      tensor {
        dtype: DT_INT32
        tensor_shape {
          dim {
            size: 1
          }
        }
        int_val: 3072
      }
    }
  }
}
node {
  name: "Generator/generator/g_fc2/bias/Initializer/zeros/Const"
  op: "Const"
  attr {
    key: "_class"
    value {
      list {
        s: "loc:@Generator/generator/g_fc2/bias"
      }
    }
  }
  attr {
    key: "_output_shapes"
    value {
      list {
        shape {
        }
      }
    }
  }
  attr {
    key: "dtype"
    value {
      type: DT_FLOAT
    }
  }
  attr {
    key: "value"
    value {
      tensor {
        dtype: DT_FLOAT
        tensor_shape {
        }
        float_val: 0.0
      }
    }
  }
}
node {
  name: "Generator/generator/g_fc2/bias/Initializer/zeros"
  op: "Fill"
  input: "Generator/generator/g_fc2/bias/Initializer/zeros/shape_as_tensor"
  input: "Generator/generator/g_fc2/bias/Initializer/zeros/Const"
  attr {
    key: "T"
    value {
      type: DT_FLOAT
    }
  }
  attr {
    key: "_class"
    value {
      list {
        s: "loc:@Generator/generator/g_fc2/bias"
      }
    }
  }
  attr {
    key: "_output_shapes"
    value {
      list {
        shape {
          dim {
            size: 3072
          }
        }
      }
    }
  }
  attr {
    key: "index_type"
    value {
      type: DT_INT32
    }
  }
}
node {
  name: "Generator/generator/g_fc2/bias"
  op: "VarHandleOp"
  attr {
    key: "_class"
    value {
      list {
        s: "loc:@Generator/generator/g_fc2/bias"
      }
    }
  }
  attr {
    key: "_output_shapes"
    value {
      list {
        shape {
        }
      }
    }
  }
  attr {
    key: "container"
    value {
      s: ""
    }
  }
  attr {
    key: "dtype"
    value {
      type: DT_FLOAT
    }
  }
  attr {
    key: "shape"
    value {
      shape {
        dim {
          size: 3072
        }
      }
    }
  }
  attr {
    key: "shared_name"
    value {
      s: "Generator/generator/g_fc2/bias"
    }
  }
}
node {
  name: "Generator/generator/g_fc2/bias/IsInitialized/VarIsInitializedOp"
  op: "VarIsInitializedOp"
  input: "Generator/generator/g_fc2/bias"
  attr {
    key: "_output_shapes"
    value {
      list {
        shape {
        }
      }
    }
  }
}
node {
  name: "Generator/generator/g_fc2/bias/Assign"
  op: "AssignVariableOp"
  input: "Generator/generator/g_fc2/bias"
  input: "Generator/generator/g_fc2/bias/Initializer/zeros"
  attr {
    key: "_class"
    value {
      list {
        s: "loc:@Generator/generator/g_fc2/bias"
      }
    }
  }
  attr {
    key: "dtype"
    value {
      type: DT_FLOAT
    }
  }
}
node {
  name: "Generator/generator/g_fc2/bias/Read/ReadVariableOp"
  op: "ReadVariableOp"
  input: "Generator/generator/g_fc2/bias"
  attr {
    key: "_class"
    value {
      list {
        s: "loc:@Generator/generator/g_fc2/bias"
      }
    }
  }
  attr {
    key: "_output_shapes"
    value {
      list {
        shape {
          dim {
            size: 3072
          }
        }
      }
    }
  }
  attr {
    key: "dtype"
    value {
      type: DT_FLOAT
    }
  }
}
node {
  name: "Generator/generator/g_fc2/MatMul/ReadVariableOp"
  op: "ReadVariableOp"
  input: "Generator/generator/g_fc2/MatMul/ReadVariableOp/Enter"
  input: "^Identity"
  attr {
    key: "_output_shapes"
    value {
      list {
        shape {
          dim {
            size: 256
          }
          dim {
            size: 3072
          }
        }
      }
    }
  }
  attr {
    key: "_tpu_replicate"
    value {
      s: "cluster"
    }
  }
  attr {
    key: "dtype"
    value {
      type: DT_FLOAT
    }
  }
}
node {
  name: "Generator/generator/g_fc2/MatMul/ReadVariableOp/Enter"
  op: "Enter"
  input: "Generator/generator/g_fc2/kernel"
  input: "^TPUReplicateMetadata"
  attr {
    key: "T"
    value {
      type: DT_RESOURCE
    }
  }
  attr {
    key: "_output_shapes"
    value {
      list {
        shape {
        }
      }
    }
  }
  attr {
    key: "_tpu_replicate"
    value {
      s: "cluster"
    }
  }
  attr {
    key: "frame_name"
    value {
      s: "while_context"
    }
  }
  attr {
    key: "is_constant"
    value {
      b: true
    }
  }
  attr {
    key: "parallel_iterations"
    value {
      i: 1
    }
  }
}
node {
  name: "Generator/generator/g_fc2/MatMul"
  op: "MatMul"
  input: "Generator/generator/Tanh"
  input: "Generator/generator/g_fc2/MatMul/ReadVariableOp"
  attr {
    key: "T"
    value {
      type: DT_FLOAT
    }
  }
  attr {
    key: "_output_shapes"
    value {
      list {
        shape {
          dim {
            size: 128
          }
          dim {
            size: 3072
          }
        }
      }
    }
  }
  attr {
    key: "_tpu_replicate"
    value {
      s: "cluster"
    }
  }
  attr {
    key: "transpose_a"
    value {
      b: false
    }
  }
  attr {
    key: "transpose_b"
    value {
      b: false
    }
  }
}
node {
  name: "Generator/generator/g_fc2/BiasAdd/ReadVariableOp"
  op: "ReadVariableOp"
  input: "Generator/generator/g_fc2/BiasAdd/ReadVariableOp/Enter"
  input: "^Identity"
  attr {
    key: "_output_shapes"
    value {
      list {
        shape {
          dim {
            size: 3072
          }
        }
      }
    }
  }
  attr {
    key: "_tpu_replicate"
    value {
      s: "cluster"
    }
  }
  attr {
    key: "dtype"
    value {
      type: DT_FLOAT
    }
  }
}
node {
  name: "Generator/generator/g_fc2/BiasAdd/ReadVariableOp/Enter"
  op: "Enter"
  input: "Generator/generator/g_fc2/bias"
  input: "^TPUReplicateMetadata"
  attr {
    key: "T"
    value {
      type: DT_RESOURCE
    }
  }
  attr {
    key: "_output_shapes"
    value {
      list {
        shape {
        }
      }
    }
  }
  attr {
    key: "_tpu_replicate"
    value {
      s: "cluster"
    }
  }
  attr {
    key: "frame_name"
    value {
      s: "while_context"
    }
  }
  attr {
    key: "is_constant"
    value {
      b: true
    }
  }
  attr {
    key: "parallel_iterations"
    value {
      i: 1
    }
  }
}
node {
  name: "Generator/generator/g_fc2/BiasAdd"
  op: "BiasAdd"
  input: "Generator/generator/g_fc2/MatMul"
  input: "Generator/generator/g_fc2/BiasAdd/ReadVariableOp"
  attr {
    key: "T"
    value {
      type: DT_FLOAT
    }
  }
  attr {
    key: "_output_shapes"
    value {
      list {
        shape {
          dim {
            size: 128
          }
          dim {
            size: 3072
          }
        }
      }
    }
  }
  attr {
    key: "_tpu_replicate"
    value {
      s: "cluster"
    }
  }
  attr {
    key: "data_format"
    value {
      s: "NHWC"
    }
  }
}
node {
  name: "Generator/generator/Reshape/shape"
  op: "Const"
  input: "^Identity"
  attr {
    key: "_output_shapes"
    value {
      list {
        shape {
          dim {
            size: 4
          }
        }
      }
    }
  }
  attr {
    key: "_tpu_replicate"
    value {
      s: "cluster"
    }
  }
  attr {
    key: "dtype"
    value {
      type: DT_INT32
    }
  }
  attr {
    key: "value"
    value {
      tensor {
        dtype: DT_INT32
        tensor_shape {
          dim {
            size: 4
          }
        }
        tensor_content: "\377\377\377\377 \000\000\000 \000\000\000\003\000\000\000"
      }
    }
  }
}
node {
  name: "Generator/generator/Reshape"
  op: "Reshape"
  input: "Generator/generator/g_fc2/BiasAdd"
  input: "Generator/generator/Reshape/shape"
  attr {
    key: "T"
    value {
      type: DT_FLOAT
    }
  }
  attr {
    key: "Tshape"
    value {
      type: DT_INT32
    }
  }
  attr {
    key: "_output_shapes"
    value {
      list {
        shape {
          dim {
            size: 128
          }
          dim {
            size: 32
          }
          dim {
            size: 32
          }
          dim {
            size: 3
          }
        }
      }
    }
  }
  attr {
    key: "_tpu_replicate"
    value {
      s: "cluster"
    }
  }
}
node {
  name: "Generator/generator/Tanh_1"
  op: "Tanh"
  input: "Generator/generator/Reshape"
  attr {
    key: "T"
    value {
      type: DT_FLOAT
    }
  }
  attr {
    key: "_output_shapes"
    value {
      list {
        shape {
          dim {
            size: 128
          }
          dim {
            size: 32
          }
          dim {
            size: 32
          }
          dim {
            size: 3
          }
        }
      }
    }
  }
  attr {
    key: "_tpu_replicate"
    value {
      s: "cluster"
    }
  }
}
node {
  name: "Discriminator/discriminator/flatten/Reshape/shape"
  op: "Const"
  input: "^Identity"
  attr {
    key: "_output_shapes"
    value {
      list {
        shape {
          dim {
            size: 2
          }
        }
      }
    }
  }
  attr {
    key: "_tpu_replicate"
    value {
      s: "cluster"
    }
  }
  attr {
    key: "dtype"
    value {
      type: DT_INT32
    }
  }
  attr {
    key: "value"
    value {
      tensor {
        dtype: DT_INT32
        tensor_shape {
          dim {
            size: 2
          }
        }
        tensor_content: "\200\000\000\000\377\377\377\377"
      }
    }
  }
}
node {
  name: "Discriminator/discriminator/flatten/Reshape"
  op: "Reshape"
  input: "Generator/generator/Tanh_1"
  input: "Discriminator/discriminator/flatten/Reshape/shape"
  attr {
    key: "T"
    value {
      type: DT_FLOAT
    }
  }
  attr {
    key: "Tshape"
    value {
      type: DT_INT32
    }
  }
  attr {
    key: "_output_shapes"
    value {
      list {
        shape {
          dim {
            size: 128
          }
          dim {
            size: 3072
          }
        }
      }
    }
  }
  attr {
    key: "_tpu_replicate"
    value {
      s: "cluster"
    }
  }
}
node {
  name: "Discriminator/discriminator/d_fc1/kernel/Initializer/truncated_normal/shape"
  op: "Const"
  attr {
    key: "_class"
    value {
      list {
        s: "loc:@Discriminator/discriminator/d_fc1/kernel"
      }
    }
  }
  attr {
    key: "_output_shapes"
    value {
      list {
        shape {
          dim {
            size: 2
          }
        }
      }
    }
  }
  attr {
    key: "dtype"
    value {
      type: DT_INT32
    }
  }
  attr {
    key: "value"
    value {
      tensor {
        dtype: DT_INT32
        tensor_shape {
          dim {
            size: 2
          }
        }
        tensor_content: "\000\014\000\000\000\001\000\000"
      }
    }
  }
}
node {
  name: "Discriminator/discriminator/d_fc1/kernel/Initializer/truncated_normal/mean"
  op: "Const"
  attr {
    key: "_class"
    value {
      list {
        s: "loc:@Discriminator/discriminator/d_fc1/kernel"
      }
    }
  }
  attr {
    key: "_output_shapes"
    value {
      list {
        shape {
        }
      }
    }
  }
  attr {
    key: "dtype"
    value {
      type: DT_FLOAT
    }
  }
  attr {
    key: "value"
    value {
      tensor {
        dtype: DT_FLOAT
        tensor_shape {
        }
        float_val: 0.0
      }
    }
  }
}
node {
  name: "Discriminator/discriminator/d_fc1/kernel/Initializer/truncated_normal/stddev"
  op: "Const"
  attr {
    key: "_class"
    value {
      list {
        s: "loc:@Discriminator/discriminator/d_fc1/kernel"
      }
    }
  }
  attr {
    key: "_output_shapes"
    value {
      list {
        shape {
        }
      }
    }
  }
  attr {
    key: "dtype"
    value {
      type: DT_FLOAT
    }
  }
  attr {
    key: "value"
    value {
      tensor {
        dtype: DT_FLOAT
        tensor_shape {
        }
        float_val: 0.019999999552965164
      }
    }
  }
}
node {
  name: "Discriminator/discriminator/d_fc1/kernel/Initializer/truncated_normal/TruncatedNormal"
  op: "TruncatedNormal"
  input: "Discriminator/discriminator/d_fc1/kernel/Initializer/truncated_normal/shape"
  attr {
    key: "T"
    value {
      type: DT_INT32
    }
  }
  attr {
    key: "_class"
    value {
      list {
        s: "loc:@Discriminator/discriminator/d_fc1/kernel"
      }
    }
  }
  attr {
    key: "_output_shapes"
    value {
      list {
        shape {
          dim {
            size: 3072
          }
          dim {
            size: 256
          }
        }
      }
    }
  }
  attr {
    key: "dtype"
    value {
      type: DT_FLOAT
    }
  }
  attr {
    key: "seed"
    value {
      i: 0
    }
  }
  attr {
    key: "seed2"
    value {
      i: 0
    }
  }
}
node {
  name: "Discriminator/discriminator/d_fc1/kernel/Initializer/truncated_normal/mul"
  op: "Mul"
  input: "Discriminator/discriminator/d_fc1/kernel/Initializer/truncated_normal/TruncatedNormal"
  input: "Discriminator/discriminator/d_fc1/kernel/Initializer/truncated_normal/stddev"
  attr {
    key: "T"
    value {
      type: DT_FLOAT
    }
  }
  attr {
    key: "_class"
    value {
      list {
        s: "loc:@Discriminator/discriminator/d_fc1/kernel"
      }
    }
  }
  attr {
    key: "_output_shapes"
    value {
      list {
        shape {
          dim {
            size: 3072
          }
          dim {
            size: 256
          }
        }
      }
    }
  }
}
node {
  name: "Discriminator/discriminator/d_fc1/kernel/Initializer/truncated_normal"
  op: "Add"
  input: "Discriminator/discriminator/d_fc1/kernel/Initializer/truncated_normal/mul"
  input: "Discriminator/discriminator/d_fc1/kernel/Initializer/truncated_normal/mean"
  attr {
    key: "T"
    value {
      type: DT_FLOAT
    }
  }
  attr {
    key: "_class"
    value {
      list {
        s: "loc:@Discriminator/discriminator/d_fc1/kernel"
      }
    }
  }
  attr {
    key: "_output_shapes"
    value {
      list {
        shape {
          dim {
            size: 3072
          }
          dim {
            size: 256
          }
        }
      }
    }
  }
}
node {
  name: "Discriminator/discriminator/d_fc1/kernel"
  op: "VarHandleOp"
  attr {
    key: "_class"
    value {
      list {
        s: "loc:@Discriminator/discriminator/d_fc1/kernel"
      }
    }
  }
  attr {
    key: "_output_shapes"
    value {
      list {
        shape {
        }
      }
    }
  }
  attr {
    key: "container"
    value {
      s: ""
    }
  }
  attr {
    key: "dtype"
    value {
      type: DT_FLOAT
    }
  }
  attr {
    key: "shape"
    value {
      shape {
        dim {
          size: 3072
        }
        dim {
          size: 256
        }
      }
    }
  }
  attr {
    key: "shared_name"
    value {
      s: "Discriminator/discriminator/d_fc1/kernel"
    }
  }
}
node {
  name: "Discriminator/discriminator/d_fc1/kernel/IsInitialized/VarIsInitializedOp"
  op: "VarIsInitializedOp"
  input: "Discriminator/discriminator/d_fc1/kernel"
  attr {
    key: "_output_shapes"
    value {
      list {
        shape {
        }
      }
    }
  }
}
node {
  name: "Discriminator/discriminator/d_fc1/kernel/Assign"
  op: "AssignVariableOp"
  input: "Discriminator/discriminator/d_fc1/kernel"
  input: "Discriminator/discriminator/d_fc1/kernel/Initializer/truncated_normal"
  attr {
    key: "_class"
    value {
      list {
        s: "loc:@Discriminator/discriminator/d_fc1/kernel"
      }
    }
  }
  attr {
    key: "dtype"
    value {
      type: DT_FLOAT
    }
  }
}
node {
  name: "Discriminator/discriminator/d_fc1/kernel/Read/ReadVariableOp"
  op: "ReadVariableOp"
  input: "Discriminator/discriminator/d_fc1/kernel"
  attr {
    key: "_class"
    value {
      list {
        s: "loc:@Discriminator/discriminator/d_fc1/kernel"
      }
    }
  }
  attr {
    key: "_output_shapes"
    value {
      list {
        shape {
          dim {
            size: 3072
          }
          dim {
            size: 256
          }
        }
      }
    }
  }
  attr {
    key: "dtype"
    value {
      type: DT_FLOAT
    }
  }
}
node {
  name: "Discriminator/discriminator/d_fc1/bias/Initializer/zeros"
  op: "Const"
  attr {
    key: "_class"
    value {
      list {
        s: "loc:@Discriminator/discriminator/d_fc1/bias"
      }
    }
  }
  attr {
    key: "_output_shapes"
    value {
      list {
        shape {
          dim {
            size: 256
          }
        }
      }
    }
  }
  attr {
    key: "dtype"
    value {
      type: DT_FLOAT
    }
  }
  attr {
    key: "value"
    value {
      tensor {
        dtype: DT_FLOAT
        tensor_shape {
          dim {
            size: 256
          }
        }
        float_val: 0.0
      }
    }
  }
}
node {
  name: "Discriminator/discriminator/d_fc1/bias"
  op: "VarHandleOp"
  attr {
    key: "_class"
    value {
      list {
        s: "loc:@Discriminator/discriminator/d_fc1/bias"
      }
    }
  }
  attr {
    key: "_output_shapes"
    value {
      list {
        shape {
        }
      }
    }
  }
  attr {
    key: "container"
    value {
      s: ""
    }
  }
  attr {
    key: "dtype"
    value {
      type: DT_FLOAT
    }
  }
  attr {
    key: "shape"
    value {
      shape {
        dim {
          size: 256
        }
      }
    }
  }
  attr {
    key: "shared_name"
    value {
      s: "Discriminator/discriminator/d_fc1/bias"
    }
  }
}
node {
  name: "Discriminator/discriminator/d_fc1/bias/IsInitialized/VarIsInitializedOp"
  op: "VarIsInitializedOp"
  input: "Discriminator/discriminator/d_fc1/bias"
  attr {
    key: "_output_shapes"
    value {
      list {
        shape {
        }
      }
    }
  }
}
node {
  name: "Discriminator/discriminator/d_fc1/bias/Assign"
  op: "AssignVariableOp"
  input: "Discriminator/discriminator/d_fc1/bias"
  input: "Discriminator/discriminator/d_fc1/bias/Initializer/zeros"
  attr {
    key: "_class"
    value {
      list {
        s: "loc:@Discriminator/discriminator/d_fc1/bias"
      }
    }
  }
  attr {
    key: "dtype"
    value {
      type: DT_FLOAT
    }
  }
}
node {
  name: "Discriminator/discriminator/d_fc1/bias/Read/ReadVariableOp"
  op: "ReadVariableOp"
  input: "Discriminator/discriminator/d_fc1/bias"
  attr {
    key: "_class"
    value {
      list {
        s: "loc:@Discriminator/discriminator/d_fc1/bias"
      }
    }
  }
  attr {
    key: "_output_shapes"
    value {
      list {
        shape {
          dim {
            size: 256
          }
        }
      }
    }
  }
  attr {
    key: "dtype"
    value {
      type: DT_FLOAT
    }
  }
}
node {
  name: "Discriminator/discriminator/d_fc1/MatMul/ReadVariableOp"
  op: "ReadVariableOp"
  input: "Discriminator/discriminator/d_fc1/MatMul/ReadVariableOp/Enter"
  input: "^Identity"
  attr {
    key: "_output_shapes"
    value {
      list {
        shape {
          dim {
            size: 3072
          }
          dim {
            size: 256
          }
        }
      }
    }
  }
  attr {
    key: "_tpu_replicate"
    value {
      s: "cluster"
    }
  }
  attr {
    key: "dtype"
    value {
      type: DT_FLOAT
    }
  }
}
node {
  name: "Discriminator/discriminator/d_fc1/MatMul/ReadVariableOp/Enter"
  op: "Enter"
  input: "Discriminator/discriminator/d_fc1/kernel"
  input: "^TPUReplicateMetadata"
  attr {
    key: "T"
    value {
      type: DT_RESOURCE
    }
  }
  attr {
    key: "_output_shapes"
    value {
      list {
        shape {
        }
      }
    }
  }
  attr {
    key: "_tpu_replicate"
    value {
      s: "cluster"
    }
  }
  attr {
    key: "frame_name"
    value {
      s: "while_context"
    }
  }
  attr {
    key: "is_constant"
    value {
      b: true
    }
  }
  attr {
    key: "parallel_iterations"
    value {
      i: 1
    }
  }
}
node {
  name: "Discriminator/discriminator/d_fc1/MatMul"
  op: "MatMul"
  input: "Discriminator/discriminator/flatten/Reshape"
  input: "Discriminator/discriminator/d_fc1/MatMul/ReadVariableOp"
  attr {
    key: "T"
    value {
      type: DT_FLOAT
    }
  }
  attr {
    key: "_output_shapes"
    value {
      list {
        shape {
          dim {
            size: 128
          }
          dim {
            size: 256
          }
        }
      }
    }
  }
  attr {
    key: "_tpu_replicate"
    value {
      s: "cluster"
    }
  }
  attr {
    key: "transpose_a"
    value {
      b: false
    }
  }
  attr {
    key: "transpose_b"
    value {
      b: false
    }
  }
}
node {
  name: "Discriminator/discriminator/d_fc1/BiasAdd/ReadVariableOp"
  op: "ReadVariableOp"
  input: "Discriminator/discriminator/d_fc1/BiasAdd/ReadVariableOp/Enter"
  input: "^Identity"
  attr {
    key: "_output_shapes"
    value {
      list {
        shape {
          dim {
            size: 256
          }
        }
      }
    }
  }
  attr {
    key: "_tpu_replicate"
    value {
      s: "cluster"
    }
  }
  attr {
    key: "dtype"
    value {
      type: DT_FLOAT
    }
  }
}
node {
  name: "Discriminator/discriminator/d_fc1/BiasAdd/ReadVariableOp/Enter"
  op: "Enter"
  input: "Discriminator/discriminator/d_fc1/bias"
  input: "^TPUReplicateMetadata"
  attr {
    key: "T"
    value {
      type: DT_RESOURCE
    }
  }
  attr {
    key: "_output_shapes"
    value {
      list {
        shape {
        }
      }
    }
  }
  attr {
    key: "_tpu_replicate"
    value {
      s: "cluster"
    }
  }
  attr {
    key: "frame_name"
    value {
      s: "while_context"
    }
  }
  attr {
    key: "is_constant"
    value {
      b: true
    }
  }
  attr {
    key: "parallel_iterations"
    value {
      i: 1
    }
  }
}
node {
  name: "Discriminator/discriminator/d_fc1/BiasAdd"
  op: "BiasAdd"
  input: "Discriminator/discriminator/d_fc1/MatMul"
  input: "Discriminator/discriminator/d_fc1/BiasAdd/ReadVariableOp"
  attr {
    key: "T"
    value {
      type: DT_FLOAT
    }
  }
  attr {
    key: "_output_shapes"
    value {
      list {
        shape {
          dim {
            size: 128
          }
          dim {
            size: 256
          }
        }
      }
    }
  }
  attr {
    key: "_tpu_replicate"
    value {
      s: "cluster"
    }
  }
  attr {
    key: "data_format"
    value {
      s: "NHWC"
    }
  }
}
node {
  name: "Discriminator/discriminator/dropout/dropout/rate"
  op: "Const"
  input: "^Identity"
  attr {
    key: "_output_shapes"
    value {
      list {
        shape {
        }
      }
    }
  }
  attr {
    key: "_tpu_replicate"
    value {
      s: "cluster"
    }
  }
  attr {
    key: "dtype"
    value {
      type: DT_FLOAT
    }
  }
  attr {
    key: "value"
    value {
      tensor {
        dtype: DT_FLOAT
        tensor_shape {
        }
        float_val: 0.25
      }
    }
  }
}
node {
  name: "Discriminator/discriminator/dropout/dropout/Shape"
  op: "Const"
  input: "^Identity"
  attr {
    key: "_output_shapes"
    value {
      list {
        shape {
          dim {
            size: 2
          }
        }
      }
    }
  }
  attr {
    key: "_tpu_replicate"
    value {
      s: "cluster"
    }
  }
  attr {
    key: "dtype"
    value {
      type: DT_INT32
    }
  }
  attr {
    key: "value"
    value {
      tensor {
        dtype: DT_INT32
        tensor_shape {
          dim {
            size: 2
          }
        }
        tensor_content: "\200\000\000\000\000\001\000\000"
      }
    }
  }
}
node {
  name: "Discriminator/discriminator/dropout/dropout/sub/x"
  op: "Const"
  input: "^Identity"
  attr {
    key: "_output_shapes"
    value {
      list {
        shape {
        }
      }
    }
  }
  attr {
    key: "_tpu_replicate"
    value {
      s: "cluster"
    }
  }
  attr {
    key: "dtype"
    value {
      type: DT_FLOAT
    }
  }
  attr {
    key: "value"
    value {
      tensor {
        dtype: DT_FLOAT
        tensor_shape {
        }
        float_val: 1.0
      }
    }
  }
}
node {
  name: "Discriminator/discriminator/dropout/dropout/sub"
  op: "Sub"
  input: "Discriminator/discriminator/dropout/dropout/sub/x"
  input: "Discriminator/discriminator/dropout/dropout/rate"
  attr {
    key: "T"
    value {
      type: DT_FLOAT
    }
  }
  attr {
    key: "_output_shapes"
    value {
      list {
        shape {
        }
      }
    }
  }
  attr {
    key: "_tpu_replicate"
    value {
      s: "cluster"
    }
  }
}
node {
  name: "Discriminator/discriminator/dropout/dropout/random_uniform/min"
  op: "Const"
  input: "^Identity"
  attr {
    key: "_output_shapes"
    value {
      list {
        shape {
        }
      }
    }
  }
  attr {
    key: "_tpu_replicate"
    value {
      s: "cluster"
    }
  }
  attr {
    key: "dtype"
    value {
      type: DT_FLOAT
    }
  }
  attr {
    key: "value"
    value {
      tensor {
        dtype: DT_FLOAT
        tensor_shape {
        }
        float_val: 0.0
      }
    }
  }
}
node {
  name: "Discriminator/discriminator/dropout/dropout/random_uniform/max"
  op: "Const"
  input: "^Identity"
  attr {
    key: "_output_shapes"
    value {
      list {
        shape {
        }
      }
    }
  }
  attr {
    key: "_tpu_replicate"
    value {
      s: "cluster"
    }
  }
  attr {
    key: "dtype"
    value {
      type: DT_FLOAT
    }
  }
  attr {
    key: "value"
    value {
      tensor {
        dtype: DT_FLOAT
        tensor_shape {
        }
        float_val: 1.0
      }
    }
  }
}
node {
  name: "Discriminator/discriminator/dropout/dropout/random_uniform/RandomUniform"
  op: "RandomUniform"
  input: "Discriminator/discriminator/dropout/dropout/Shape"
  attr {
    key: "T"
    value {
      type: DT_INT32
    }
  }
  attr {
    key: "_output_shapes"
    value {
      list {
        shape {
          dim {
            size: 128
          }
          dim {
            size: 256
          }
        }
      }
    }
  }
  attr {
    key: "_tpu_replicate"
    value {
      s: "cluster"
    }
  }
  attr {
    key: "dtype"
    value {
      type: DT_FLOAT
    }
  }
  attr {
    key: "seed"
    value {
      i: 0
    }
  }
  attr {
    key: "seed2"
    value {
      i: 0
    }
  }
}
node {
  name: "Discriminator/discriminator/dropout/dropout/random_uniform/sub"
  op: "Sub"
  input: "Discriminator/discriminator/dropout/dropout/random_uniform/max"
  input: "Discriminator/discriminator/dropout/dropout/random_uniform/min"
  attr {
    key: "T"
    value {
      type: DT_FLOAT
    }
  }
  attr {
    key: "_output_shapes"
    value {
      list {
        shape {
        }
      }
    }
  }
  attr {
    key: "_tpu_replicate"
    value {
      s: "cluster"
    }
  }
}
node {
  name: "Discriminator/discriminator/dropout/dropout/random_uniform/mul"
  op: "Mul"
  input: "Discriminator/discriminator/dropout/dropout/random_uniform/RandomUniform"
  input: "Discriminator/discriminator/dropout/dropout/random_uniform/sub"
  attr {
    key: "T"
    value {
      type: DT_FLOAT
    }
  }
  attr {
    key: "_output_shapes"
    value {
      list {
        shape {
          dim {
            size: 128
          }
          dim {
            size: 256
          }
        }
      }
    }
  }
  attr {
    key: "_tpu_replicate"
    value {
      s: "cluster"
    }
  }
}
node {
  name: "Discriminator/discriminator/dropout/dropout/random_uniform"
  op: "Add"
  input: "Discriminator/discriminator/dropout/dropout/random_uniform/mul"
  input: "Discriminator/discriminator/dropout/dropout/random_uniform/min"
  attr {
    key: "T"
    value {
      type: DT_FLOAT
    }
  }
  attr {
    key: "_output_shapes"
    value {
      list {
        shape {
          dim {
            size: 128
          }
          dim {
            size: 256
          }
        }
      }
    }
  }
  attr {
    key: "_tpu_replicate"
    value {
      s: "cluster"
    }
  }
}
node {
  name: "Discriminator/discriminator/dropout/dropout/add"
  op: "Add"
  input: "Discriminator/discriminator/dropout/dropout/sub"
  input: "Discriminator/discriminator/dropout/dropout/random_uniform"
  attr {
    key: "T"
    value {
      type: DT_FLOAT
    }
  }
  attr {
    key: "_output_shapes"
    value {
      list {
        shape {
          dim {
            size: 128
          }
          dim {
            size: 256
          }
        }
      }
    }
  }
  attr {
    key: "_tpu_replicate"
    value {
      s: "cluster"
    }
  }
}
node {
  name: "Discriminator/discriminator/dropout/dropout/Floor"
  op: "Floor"
  input: "Discriminator/discriminator/dropout/dropout/add"
  attr {
    key: "T"
    value {
      type: DT_FLOAT
    }
  }
  attr {
    key: "_output_shapes"
    value {
      list {
        shape {
          dim {
            size: 128
          }
          dim {
            size: 256
          }
        }
      }
    }
  }
  attr {
    key: "_tpu_replicate"
    value {
      s: "cluster"
    }
  }
}
node {
  name: "Discriminator/discriminator/dropout/dropout/truediv"
  op: "RealDiv"
  input: "Discriminator/discriminator/d_fc1/BiasAdd"
  input: "Discriminator/discriminator/dropout/dropout/sub"
  attr {
    key: "T"
    value {
      type: DT_FLOAT
    }
  }
  attr {
    key: "_output_shapes"
    value {
      list {
        shape {
          dim {
            size: 128
          }
          dim {
            size: 256
          }
        }
      }
    }
  }
  attr {
    key: "_tpu_replicate"
    value {
      s: "cluster"
    }
  }
}
node {
  name: "Discriminator/discriminator/dropout/dropout/mul"
  op: "Mul"
  input: "Discriminator/discriminator/dropout/dropout/truediv"
  input: "Discriminator/discriminator/dropout/dropout/Floor"
  attr {
    key: "T"
    value {
      type: DT_FLOAT
    }
  }
  attr {
    key: "_output_shapes"
    value {
      list {
        shape {
          dim {
            size: 128
          }
          dim {
            size: 256
          }
        }
      }
    }
  }
  attr {
    key: "_tpu_replicate"
    value {
      s: "cluster"
    }
  }
}
node {
  name: "Discriminator/discriminator/Tanh"
  op: "Tanh"
  input: "Discriminator/discriminator/dropout/dropout/mul"
  attr {
    key: "T"
    value {
      type: DT_FLOAT
    }
  }
  attr {
    key: "_output_shapes"
    value {
      list {
        shape {
          dim {
            size: 128
          }
          dim {
            size: 256
          }
        }
      }
    }
  }
  attr {
    key: "_tpu_replicate"
    value {
      s: "cluster"
    }
  }
}
node {
  name: "Discriminator/discriminator/d_fc2/kernel/Initializer/truncated_normal/shape"
  op: "Const"
  attr {
    key: "_class"
    value {
      list {
        s: "loc:@Discriminator/discriminator/d_fc2/kernel"
      }
    }
  }
  attr {
    key: "_output_shapes"
    value {
      list {
        shape {
          dim {
            size: 2
          }
        }
      }
    }
  }
  attr {
    key: "dtype"
    value {
      type: DT_INT32
    }
  }
  attr {
    key: "value"
    value {
      tensor {
        dtype: DT_INT32
        tensor_shape {
          dim {
            size: 2
          }
        }
        tensor_content: "\000\001\000\000\001\000\000\000"
      }
    }
  }
}
node {
  name: "Discriminator/discriminator/d_fc2/kernel/Initializer/truncated_normal/mean"
  op: "Const"
  attr {
    key: "_class"
    value {
      list {
        s: "loc:@Discriminator/discriminator/d_fc2/kernel"
      }
    }
  }
  attr {
    key: "_output_shapes"
    value {
      list {
        shape {
        }
      }
    }
  }
  attr {
    key: "dtype"
    value {
      type: DT_FLOAT
    }
  }
  attr {
    key: "value"
    value {
      tensor {
        dtype: DT_FLOAT
        tensor_shape {
        }
        float_val: 0.0
      }
    }
  }
}
node {
  name: "Discriminator/discriminator/d_fc2/kernel/Initializer/truncated_normal/stddev"
  op: "Const"
  attr {
    key: "_class"
    value {
      list {
        s: "loc:@Discriminator/discriminator/d_fc2/kernel"
      }
    }
  }
  attr {
    key: "_output_shapes"
    value {
      list {
        shape {
        }
      }
    }
  }
  attr {
    key: "dtype"
    value {
      type: DT_FLOAT
    }
  }
  attr {
    key: "value"
    value {
      tensor {
        dtype: DT_FLOAT
        tensor_shape {
        }
        float_val: 0.019999999552965164
      }
    }
  }
}
node {
  name: "Discriminator/discriminator/d_fc2/kernel/Initializer/truncated_normal/TruncatedNormal"
  op: "TruncatedNormal"
  input: "Discriminator/discriminator/d_fc2/kernel/Initializer/truncated_normal/shape"
  attr {
    key: "T"
    value {
      type: DT_INT32
    }
  }
  attr {
    key: "_class"
    value {
      list {
        s: "loc:@Discriminator/discriminator/d_fc2/kernel"
      }
    }
  }
  attr {
    key: "_output_shapes"
    value {
      list {
        shape {
          dim {
            size: 256
          }
          dim {
            size: 1
          }
        }
      }
    }
  }
  attr {
    key: "dtype"
    value {
      type: DT_FLOAT
    }
  }
  attr {
    key: "seed"
    value {
      i: 0
    }
  }
  attr {
    key: "seed2"
    value {
      i: 0
    }
  }
}
node {
  name: "Discriminator/discriminator/d_fc2/kernel/Initializer/truncated_normal/mul"
  op: "Mul"
  input: "Discriminator/discriminator/d_fc2/kernel/Initializer/truncated_normal/TruncatedNormal"
  input: "Discriminator/discriminator/d_fc2/kernel/Initializer/truncated_normal/stddev"
  attr {
    key: "T"
    value {
      type: DT_FLOAT
    }
  }
  attr {
    key: "_class"
    value {
      list {
        s: "loc:@Discriminator/discriminator/d_fc2/kernel"
      }
    }
  }
  attr {
    key: "_output_shapes"
    value {
      list {
        shape {
          dim {
            size: 256
          }
          dim {
            size: 1
          }
        }
      }
    }
  }
}
node {
  name: "Discriminator/discriminator/d_fc2/kernel/Initializer/truncated_normal"
  op: "Add"
  input: "Discriminator/discriminator/d_fc2/kernel/Initializer/truncated_normal/mul"
  input: "Discriminator/discriminator/d_fc2/kernel/Initializer/truncated_normal/mean"
  attr {
    key: "T"
    value {
      type: DT_FLOAT
    }
  }
  attr {
    key: "_class"
    value {
      list {
        s: "loc:@Discriminator/discriminator/d_fc2/kernel"
      }
    }
  }
  attr {
    key: "_output_shapes"
    value {
      list {
        shape {
          dim {
            size: 256
          }
          dim {
            size: 1
          }
        }
      }
    }
  }
}
node {
  name: "Discriminator/discriminator/d_fc2/kernel"
  op: "VarHandleOp"
  attr {
    key: "_class"
    value {
      list {
        s: "loc:@Discriminator/discriminator/d_fc2/kernel"
      }
    }
  }
  attr {
    key: "_output_shapes"
    value {
      list {
        shape {
        }
      }
    }
  }
  attr {
    key: "container"
    value {
      s: ""
    }
  }
  attr {
    key: "dtype"
    value {
      type: DT_FLOAT
    }
  }
  attr {
    key: "shape"
    value {
      shape {
        dim {
          size: 256
        }
        dim {
          size: 1
        }
      }
    }
  }
  attr {
    key: "shared_name"
    value {
      s: "Discriminator/discriminator/d_fc2/kernel"
    }
  }
}
node {
  name: "Discriminator/discriminator/d_fc2/kernel/IsInitialized/VarIsInitializedOp"
  op: "VarIsInitializedOp"
  input: "Discriminator/discriminator/d_fc2/kernel"
  attr {
    key: "_output_shapes"
    value {
      list {
        shape {
        }
      }
    }
  }
}
node {
  name: "Discriminator/discriminator/d_fc2/kernel/Assign"
  op: "AssignVariableOp"
  input: "Discriminator/discriminator/d_fc2/kernel"
  input: "Discriminator/discriminator/d_fc2/kernel/Initializer/truncated_normal"
  attr {
    key: "_class"
    value {
      list {
        s: "loc:@Discriminator/discriminator/d_fc2/kernel"
      }
    }
  }
  attr {
    key: "dtype"
    value {
      type: DT_FLOAT
    }
  }
}
node {
  name: "Discriminator/discriminator/d_fc2/kernel/Read/ReadVariableOp"
  op: "ReadVariableOp"
  input: "Discriminator/discriminator/d_fc2/kernel"
  attr {
    key: "_class"
    value {
      list {
        s: "loc:@Discriminator/discriminator/d_fc2/kernel"
      }
    }
  }
  attr {
    key: "_output_shapes"
    value {
      list {
        shape {
          dim {
            size: 256
          }
          dim {
            size: 1
          }
        }
      }
    }
  }
  attr {
    key: "dtype"
    value {
      type: DT_FLOAT
    }
  }
}
node {
  name: "Discriminator/discriminator/d_fc2/bias/Initializer/zeros"
  op: "Const"
  attr {
    key: "_class"
    value {
      list {
        s: "loc:@Discriminator/discriminator/d_fc2/bias"
      }
    }
  }
  attr {
    key: "_output_shapes"
    value {
      list {
        shape {
          dim {
            size: 1
          }
        }
      }
    }
  }
  attr {
    key: "dtype"
    value {
      type: DT_FLOAT
    }
  }
  attr {
    key: "value"
    value {
      tensor {
        dtype: DT_FLOAT
        tensor_shape {
          dim {
            size: 1
          }
        }
        float_val: 0.0
      }
    }
  }
}
node {
  name: "Discriminator/discriminator/d_fc2/bias"
  op: "VarHandleOp"
  attr {
    key: "_class"
    value {
      list {
        s: "loc:@Discriminator/discriminator/d_fc2/bias"
      }
    }
  }
  attr {
    key: "_output_shapes"
    value {
      list {
        shape {
        }
      }
    }
  }
  attr {
    key: "container"
    value {
      s: ""
    }
  }
  attr {
    key: "dtype"
    value {
      type: DT_FLOAT
    }
  }
  attr {
    key: "shape"
    value {
      shape {
        dim {
          size: 1
        }
      }
    }
  }
  attr {
    key: "shared_name"
    value {
      s: "Discriminator/discriminator/d_fc2/bias"
    }
  }
}
node {
  name: "Discriminator/discriminator/d_fc2/bias/IsInitialized/VarIsInitializedOp"
  op: "VarIsInitializedOp"
  input: "Discriminator/discriminator/d_fc2/bias"
  attr {
    key: "_output_shapes"
    value {
      list {
        shape {
        }
      }
    }
  }
}
node {
  name: "Discriminator/discriminator/d_fc2/bias/Assign"
  op: "AssignVariableOp"
  input: "Discriminator/discriminator/d_fc2/bias"
  input: "Discriminator/discriminator/d_fc2/bias/Initializer/zeros"
  attr {
    key: "_class"
    value {
      list {
        s: "loc:@Discriminator/discriminator/d_fc2/bias"
      }
    }
  }
  attr {
    key: "dtype"
    value {
      type: DT_FLOAT
    }
  }
}
node {
  name: "Discriminator/discriminator/d_fc2/bias/Read/ReadVariableOp"
  op: "ReadVariableOp"
  input: "Discriminator/discriminator/d_fc2/bias"
  attr {
    key: "_class"
    value {
      list {
        s: "loc:@Discriminator/discriminator/d_fc2/bias"
      }
    }
  }
  attr {
    key: "_output_shapes"
    value {
      list {
        shape {
          dim {
            size: 1
          }
        }
      }
    }
  }
  attr {
    key: "dtype"
    value {
      type: DT_FLOAT
    }
  }
}
node {
  name: "Discriminator/discriminator/d_fc2/MatMul/ReadVariableOp"
  op: "ReadVariableOp"
  input: "Discriminator/discriminator/d_fc2/MatMul/ReadVariableOp/Enter"
  input: "^Identity"
  attr {
    key: "_output_shapes"
    value {
      list {
        shape {
          dim {
            size: 256
          }
          dim {
            size: 1
          }
        }
      }
    }
  }
  attr {
    key: "_tpu_replicate"
    value {
      s: "cluster"
    }
  }
  attr {
    key: "dtype"
    value {
      type: DT_FLOAT
    }
  }
}
node {
  name: "Discriminator/discriminator/d_fc2/MatMul/ReadVariableOp/Enter"
  op: "Enter"
  input: "Discriminator/discriminator/d_fc2/kernel"
  input: "^TPUReplicateMetadata"
  attr {
    key: "T"
    value {
      type: DT_RESOURCE
    }
  }
  attr {
    key: "_output_shapes"
    value {
      list {
        shape {
        }
      }
    }
  }
  attr {
    key: "_tpu_replicate"
    value {
      s: "cluster"
    }
  }
  attr {
    key: "frame_name"
    value {
      s: "while_context"
    }
  }
  attr {
    key: "is_constant"
    value {
      b: true
    }
  }
  attr {
    key: "parallel_iterations"
    value {
      i: 1
    }
  }
}
node {
  name: "Discriminator/discriminator/d_fc2/MatMul"
  op: "MatMul"
  input: "Discriminator/discriminator/Tanh"
  input: "Discriminator/discriminator/d_fc2/MatMul/ReadVariableOp"
  attr {
    key: "T"
    value {
      type: DT_FLOAT
    }
  }
  attr {
    key: "_output_shapes"
    value {
      list {
        shape {
          dim {
            size: 128
          }
          dim {
            size: 1
          }
        }
      }
    }
  }
  attr {
    key: "_tpu_replicate"
    value {
      s: "cluster"
    }
  }
  attr {
    key: "transpose_a"
    value {
      b: false
    }
  }
  attr {
    key: "transpose_b"
    value {
      b: false
    }
  }
}
node {
  name: "Discriminator/discriminator/d_fc2/BiasAdd/ReadVariableOp"
  op: "ReadVariableOp"
  input: "Discriminator/discriminator/d_fc2/BiasAdd/ReadVariableOp/Enter"
  input: "^Identity"
  attr {
    key: "_output_shapes"
    value {
      list {
        shape {
          dim {
            size: 1
          }
        }
      }
    }
  }
  attr {
    key: "_tpu_replicate"
    value {
      s: "cluster"
    }
  }
  attr {
    key: "dtype"
    value {
      type: DT_FLOAT
    }
  }
}
node {
  name: "Discriminator/discriminator/d_fc2/BiasAdd/ReadVariableOp/Enter"
  op: "Enter"
  input: "Discriminator/discriminator/d_fc2/bias"
  input: "^TPUReplicateMetadata"
  attr {
    key: "T"
    value {
      type: DT_RESOURCE
    }
  }
  attr {
    key: "_output_shapes"
    value {
      list {
        shape {
        }
      }
    }
  }
  attr {
    key: "_tpu_replicate"
    value {
      s: "cluster"
    }
  }
  attr {
    key: "frame_name"
    value {
      s: "while_context"
    }
  }
  attr {
    key: "is_constant"
    value {
      b: true
    }
  }
  attr {
    key: "parallel_iterations"
    value {
      i: 1
    }
  }
}
node {
  name: "Discriminator/discriminator/d_fc2/BiasAdd"
  op: "BiasAdd"
  input: "Discriminator/discriminator/d_fc2/MatMul"
  input: "Discriminator/discriminator/d_fc2/BiasAdd/ReadVariableOp"
  attr {
    key: "T"
    value {
      type: DT_FLOAT
    }
  }
  attr {
    key: "_output_shapes"
    value {
      list {
        shape {
          dim {
            size: 128
          }
          dim {
            size: 1
          }
        }
      }
    }
  }
  attr {
    key: "_tpu_replicate"
    value {
      s: "cluster"
    }
  }
  attr {
    key: "data_format"
    value {
      s: "NHWC"
    }
  }
}
node {
  name: "Discriminator_1/discriminator/flatten/Reshape/shape"
  op: "Const"
  input: "^Identity"
  attr {
    key: "_output_shapes"
    value {
      list {
        shape {
          dim {
            size: 2
          }
        }
      }
    }
  }
  attr {
    key: "_tpu_replicate"
    value {
      s: "cluster"
    }
  }
  attr {
    key: "dtype"
    value {
      type: DT_INT32
    }
  }
  attr {
    key: "value"
    value {
      tensor {
        dtype: DT_INT32
        tensor_shape {
          dim {
            size: 2
          }
        }
        tensor_content: "\200\000\000\000\377\377\377\377"
      }
    }
  }
}
node {
  name: "Discriminator_1/discriminator/flatten/Reshape"
  op: "Reshape"
  input: "split"
  input: "Discriminator_1/discriminator/flatten/Reshape/shape"
  attr {
    key: "T"
    value {
      type: DT_FLOAT
    }
  }
  attr {
    key: "Tshape"
    value {
      type: DT_INT32
    }
  }
  attr {
    key: "_output_shapes"
    value {
      list {
        shape {
          dim {
            size: 128
          }
          dim {
            size: 3072
          }
        }
      }
    }
  }
  attr {
    key: "_tpu_replicate"
    value {
      s: "cluster"
    }
  }
}
node {
  name: "Discriminator_1/discriminator/d_fc1/MatMul/ReadVariableOp"
  op: "ReadVariableOp"
  input: "Discriminator/discriminator/d_fc1/MatMul/ReadVariableOp/Enter"
  input: "^Identity"
  attr {
    key: "_output_shapes"
    value {
      list {
        shape {
          dim {
            size: 3072
          }
          dim {
            size: 256
          }
        }
      }
    }
  }
  attr {
    key: "_tpu_replicate"
    value {
      s: "cluster"
    }
  }
  attr {
    key: "dtype"
    value {
      type: DT_FLOAT
    }
  }
}
node {
  name: "Discriminator_1/discriminator/d_fc1/MatMul"
  op: "MatMul"
  input: "Discriminator_1/discriminator/flatten/Reshape"
  input: "Discriminator_1/discriminator/d_fc1/MatMul/ReadVariableOp"
  attr {
    key: "T"
    value {
      type: DT_FLOAT
    }
  }
  attr {
    key: "_output_shapes"
    value {
      list {
        shape {
          dim {
            size: 128
          }
          dim {
            size: 256
          }
        }
      }
    }
  }
  attr {
    key: "_tpu_replicate"
    value {
      s: "cluster"
    }
  }
  attr {
    key: "transpose_a"
    value {
      b: false
    }
  }
  attr {
    key: "transpose_b"
    value {
      b: false
    }
  }
}
node {
  name: "Discriminator_1/discriminator/d_fc1/BiasAdd/ReadVariableOp"
  op: "ReadVariableOp"
  input: "Discriminator/discriminator/d_fc1/BiasAdd/ReadVariableOp/Enter"
  input: "^Identity"
  attr {
    key: "_output_shapes"
    value {
      list {
        shape {
          dim {
            size: 256
          }
        }
      }
    }
  }
  attr {
    key: "_tpu_replicate"
    value {
      s: "cluster"
    }
  }
  attr {
    key: "dtype"
    value {
      type: DT_FLOAT
    }
  }
}
node {
  name: "Discriminator_1/discriminator/d_fc1/BiasAdd"
  op: "BiasAdd"
  input: "Discriminator_1/discriminator/d_fc1/MatMul"
  input: "Discriminator_1/discriminator/d_fc1/BiasAdd/ReadVariableOp"
  attr {
    key: "T"
    value {
      type: DT_FLOAT
    }
  }
  attr {
    key: "_output_shapes"
    value {
      list {
        shape {
          dim {
            size: 128
          }
          dim {
            size: 256
          }
        }
      }
    }
  }
  attr {
    key: "_tpu_replicate"
    value {
      s: "cluster"
    }
  }
  attr {
    key: "data_format"
    value {
      s: "NHWC"
    }
  }
}
node {
  name: "Discriminator_1/discriminator/dropout/dropout/rate"
  op: "Const"
  input: "^Identity"
  attr {
    key: "_output_shapes"
    value {
      list {
        shape {
        }
      }
    }
  }
  attr {
    key: "_tpu_replicate"
    value {
      s: "cluster"
    }
  }
  attr {
    key: "dtype"
    value {
      type: DT_FLOAT
    }
  }
  attr {
    key: "value"
    value {
      tensor {
        dtype: DT_FLOAT
        tensor_shape {
        }
        float_val: 0.25
      }
    }
  }
}
node {
  name: "Discriminator_1/discriminator/dropout/dropout/Shape"
  op: "Const"
  input: "^Identity"
  attr {
    key: "_output_shapes"
    value {
      list {
        shape {
          dim {
            size: 2
          }
        }
      }
    }
  }
  attr {
    key: "_tpu_replicate"
    value {
      s: "cluster"
    }
  }
  attr {
    key: "dtype"
    value {
      type: DT_INT32
    }
  }
  attr {
    key: "value"
    value {
      tensor {
        dtype: DT_INT32
        tensor_shape {
          dim {
            size: 2
          }
        }
        tensor_content: "\200\000\000\000\000\001\000\000"
      }
    }
  }
}
node {
  name: "Discriminator_1/discriminator/dropout/dropout/sub/x"
  op: "Const"
  input: "^Identity"
  attr {
    key: "_output_shapes"
    value {
      list {
        shape {
        }
      }
    }
  }
  attr {
    key: "_tpu_replicate"
    value {
      s: "cluster"
    }
  }
  attr {
    key: "dtype"
    value {
      type: DT_FLOAT
    }
  }
  attr {
    key: "value"
    value {
      tensor {
        dtype: DT_FLOAT
        tensor_shape {
        }
        float_val: 1.0
      }
    }
  }
}
node {
  name: "Discriminator_1/discriminator/dropout/dropout/sub"
  op: "Sub"
  input: "Discriminator_1/discriminator/dropout/dropout/sub/x"
  input: "Discriminator_1/discriminator/dropout/dropout/rate"
  attr {
    key: "T"
    value {
      type: DT_FLOAT
    }
  }
  attr {
    key: "_output_shapes"
    value {
      list {
        shape {
        }
      }
    }
  }
  attr {
    key: "_tpu_replicate"
    value {
      s: "cluster"
    }
  }
}
node {
  name: "Discriminator_1/discriminator/dropout/dropout/random_uniform/min"
  op: "Const"
  input: "^Identity"
  attr {
    key: "_output_shapes"
    value {
      list {
        shape {
        }
      }
    }
  }
  attr {
    key: "_tpu_replicate"
    value {
      s: "cluster"
    }
  }
  attr {
    key: "dtype"
    value {
      type: DT_FLOAT
    }
  }
  attr {
    key: "value"
    value {
      tensor {
        dtype: DT_FLOAT
        tensor_shape {
        }
        float_val: 0.0
      }
    }
  }
}
node {
  name: "Discriminator_1/discriminator/dropout/dropout/random_uniform/max"
  op: "Const"
  input: "^Identity"
  attr {
    key: "_output_shapes"
    value {
      list {
        shape {
        }
      }
    }
  }
  attr {
    key: "_tpu_replicate"
    value {
      s: "cluster"
    }
  }
  attr {
    key: "dtype"
    value {
      type: DT_FLOAT
    }
  }
  attr {
    key: "value"
    value {
      tensor {
        dtype: DT_FLOAT
        tensor_shape {
        }
        float_val: 1.0
      }
    }
  }
}
node {
  name: "Discriminator_1/discriminator/dropout/dropout/random_uniform/RandomUniform"
  op: "RandomUniform"
  input: "Discriminator_1/discriminator/dropout/dropout/Shape"
  attr {
    key: "T"
    value {
      type: DT_INT32
    }
  }
  attr {
    key: "_output_shapes"
    value {
      list {
        shape {
          dim {
            size: 128
          }
          dim {
            size: 256
          }
        }
      }
    }
  }
  attr {
    key: "_tpu_replicate"
    value {
      s: "cluster"
    }
  }
  attr {
    key: "dtype"
    value {
      type: DT_FLOAT
    }
  }
  attr {
    key: "seed"
    value {
      i: 0
    }
  }
  attr {
    key: "seed2"
    value {
      i: 0
    }
  }
}
node {
  name: "Discriminator_1/discriminator/dropout/dropout/random_uniform/sub"
  op: "Sub"
  input: "Discriminator_1/discriminator/dropout/dropout/random_uniform/max"
  input: "Discriminator_1/discriminator/dropout/dropout/random_uniform/min"
  attr {
    key: "T"
    value {
      type: DT_FLOAT
    }
  }
  attr {
    key: "_output_shapes"
    value {
      list {
        shape {
        }
      }
    }
  }
  attr {
    key: "_tpu_replicate"
    value {
      s: "cluster"
    }
  }
}
node {
  name: "Discriminator_1/discriminator/dropout/dropout/random_uniform/mul"
  op: "Mul"
  input: "Discriminator_1/discriminator/dropout/dropout/random_uniform/RandomUniform"
  input: "Discriminator_1/discriminator/dropout/dropout/random_uniform/sub"
  attr {
    key: "T"
    value {
      type: DT_FLOAT
    }
  }
  attr {
    key: "_output_shapes"
    value {
      list {
        shape {
          dim {
            size: 128
          }
          dim {
            size: 256
          }
        }
      }
    }
  }
  attr {
    key: "_tpu_replicate"
    value {
      s: "cluster"
    }
  }
}
node {
  name: "Discriminator_1/discriminator/dropout/dropout/random_uniform"
  op: "Add"
  input: "Discriminator_1/discriminator/dropout/dropout/random_uniform/mul"
  input: "Discriminator_1/discriminator/dropout/dropout/random_uniform/min"
  attr {
    key: "T"
    value {
      type: DT_FLOAT
    }
  }
  attr {
    key: "_output_shapes"
    value {
      list {
        shape {
          dim {
            size: 128
          }
          dim {
            size: 256
          }
        }
      }
    }
  }
  attr {
    key: "_tpu_replicate"
    value {
      s: "cluster"
    }
  }
}
node {
  name: "Discriminator_1/discriminator/dropout/dropout/add"
  op: "Add"
  input: "Discriminator_1/discriminator/dropout/dropout/sub"
  input: "Discriminator_1/discriminator/dropout/dropout/random_uniform"
  attr {
    key: "T"
    value {
      type: DT_FLOAT
    }
  }
  attr {
    key: "_output_shapes"
    value {
      list {
        shape {
          dim {
            size: 128
          }
          dim {
            size: 256
          }
        }
      }
    }
  }
  attr {
    key: "_tpu_replicate"
    value {
      s: "cluster"
    }
  }
}
node {
  name: "Discriminator_1/discriminator/dropout/dropout/Floor"
  op: "Floor"
  input: "Discriminator_1/discriminator/dropout/dropout/add"
  attr {
    key: "T"
    value {
      type: DT_FLOAT
    }
  }
  attr {
    key: "_output_shapes"
    value {
      list {
        shape {
          dim {
            size: 128
          }
          dim {
            size: 256
          }
        }
      }
    }
  }
  attr {
    key: "_tpu_replicate"
    value {
      s: "cluster"
    }
  }
}
node {
  name: "Discriminator_1/discriminator/dropout/dropout/truediv"
  op: "RealDiv"
  input: "Discriminator_1/discriminator/d_fc1/BiasAdd"
  input: "Discriminator_1/discriminator/dropout/dropout/sub"
  attr {
    key: "T"
    value {
      type: DT_FLOAT
    }
  }
  attr {
    key: "_output_shapes"
    value {
      list {
        shape {
          dim {
            size: 128
          }
          dim {
            size: 256
          }
        }
      }
    }
  }
  attr {
    key: "_tpu_replicate"
    value {
      s: "cluster"
    }
  }
}
node {
  name: "Discriminator_1/discriminator/dropout/dropout/mul"
  op: "Mul"
  input: "Discriminator_1/discriminator/dropout/dropout/truediv"
  input: "Discriminator_1/discriminator/dropout/dropout/Floor"
  attr {
    key: "T"
    value {
      type: DT_FLOAT
    }
  }
  attr {
    key: "_output_shapes"
    value {
      list {
        shape {
          dim {
            size: 128
          }
          dim {
            size: 256
          }
        }
      }
    }
  }
  attr {
    key: "_tpu_replicate"
    value {
      s: "cluster"
    }
  }
}
node {
  name: "Discriminator_1/discriminator/Tanh"
  op: "Tanh"
  input: "Discriminator_1/discriminator/dropout/dropout/mul"
  attr {
    key: "T"
    value {
      type: DT_FLOAT
    }
  }
  attr {
    key: "_output_shapes"
    value {
      list {
        shape {
          dim {
            size: 128
          }
          dim {
            size: 256
          }
        }
      }
    }
  }
  attr {
    key: "_tpu_replicate"
    value {
      s: "cluster"
    }
  }
}
node {
  name: "Discriminator_1/discriminator/d_fc2/MatMul/ReadVariableOp"
  op: "ReadVariableOp"
  input: "Discriminator/discriminator/d_fc2/MatMul/ReadVariableOp/Enter"
  input: "^Identity"
  attr {
    key: "_output_shapes"
    value {
      list {
        shape {
          dim {
            size: 256
          }
          dim {
            size: 1
          }
        }
      }
    }
  }
  attr {
    key: "_tpu_replicate"
    value {
      s: "cluster"
    }
  }
  attr {
    key: "dtype"
    value {
      type: DT_FLOAT
    }
  }
}
node {
  name: "Discriminator_1/discriminator/d_fc2/MatMul"
  op: "MatMul"
  input: "Discriminator_1/discriminator/Tanh"
  input: "Discriminator_1/discriminator/d_fc2/MatMul/ReadVariableOp"
  attr {
    key: "T"
    value {
      type: DT_FLOAT
    }
  }
  attr {
    key: "_output_shapes"
    value {
      list {
        shape {
          dim {
            size: 128
          }
          dim {
            size: 1
          }
        }
      }
    }
  }
  attr {
    key: "_tpu_replicate"
    value {
      s: "cluster"
    }
  }
  attr {
    key: "transpose_a"
    value {
      b: false
    }
  }
  attr {
    key: "transpose_b"
    value {
      b: false
    }
  }
}
node {
  name: "Discriminator_1/discriminator/d_fc2/BiasAdd/ReadVariableOp"
  op: "ReadVariableOp"
  input: "Discriminator/discriminator/d_fc2/BiasAdd/ReadVariableOp/Enter"
  input: "^Identity"
  attr {
    key: "_output_shapes"
    value {
      list {
        shape {
          dim {
            size: 1
          }
        }
      }
    }
  }
  attr {
    key: "_tpu_replicate"
    value {
      s: "cluster"
    }
  }
  attr {
    key: "dtype"
    value {
      type: DT_FLOAT
    }
  }
}
node {
  name: "Discriminator_1/discriminator/d_fc2/BiasAdd"
  op: "BiasAdd"
  input: "Discriminator_1/discriminator/d_fc2/MatMul"
  input: "Discriminator_1/discriminator/d_fc2/BiasAdd/ReadVariableOp"
  attr {
    key: "T"
    value {
      type: DT_FLOAT
    }
  }
  attr {
    key: "_output_shapes"
    value {
      list {
        shape {
          dim {
            size: 128
          }
          dim {
            size: 1
          }
        }
      }
    }
  }
  attr {
    key: "_tpu_replicate"
    value {
      s: "cluster"
    }
  }
  attr {
    key: "data_format"
    value {
      s: "NHWC"
    }
  }
}
node {
  name: "Generator_1/generator/g_fc1/MatMul/ReadVariableOp"
  op: "ReadVariableOp"
  input: "Generator/generator/g_fc1/MatMul/ReadVariableOp/Enter"
  input: "^Identity"
  attr {
    key: "_output_shapes"
    value {
      list {
        shape {
          dim {
            size: 128
          }
          dim {
            size: 256
          }
        }
      }
    }
  }
  attr {
    key: "_tpu_replicate"
    value {
      s: "cluster"
    }
  }
  attr {
    key: "dtype"
    value {
      type: DT_FLOAT
    }
  }
}
node {
  name: "Generator_1/generator/g_fc1/MatMul"
  op: "MatMul"
  input: "split_1:1"
  input: "Generator_1/generator/g_fc1/MatMul/ReadVariableOp"
  attr {
    key: "T"
    value {
      type: DT_FLOAT
    }
  }
  attr {
    key: "_output_shapes"
    value {
      list {
        shape {
          dim {
            size: 128
          }
          dim {
            size: 256
          }
        }
      }
    }
  }
  attr {
    key: "_tpu_replicate"
    value {
      s: "cluster"
    }
  }
  attr {
    key: "transpose_a"
    value {
      b: false
    }
  }
  attr {
    key: "transpose_b"
    value {
      b: false
    }
  }
}
node {
  name: "Generator_1/generator/g_fc1/BiasAdd/ReadVariableOp"
  op: "ReadVariableOp"
  input: "Generator/generator/g_fc1/BiasAdd/ReadVariableOp/Enter"
  input: "^Identity"
  attr {
    key: "_output_shapes"
    value {
      list {
        shape {
          dim {
            size: 256
          }
        }
      }
    }
  }
  attr {
    key: "_tpu_replicate"
    value {
      s: "cluster"
    }
  }
  attr {
    key: "dtype"
    value {
      type: DT_FLOAT
    }
  }
}
node {
  name: "Generator_1/generator/g_fc1/BiasAdd"
  op: "BiasAdd"
  input: "Generator_1/generator/g_fc1/MatMul"
  input: "Generator_1/generator/g_fc1/BiasAdd/ReadVariableOp"
  attr {
    key: "T"
    value {
      type: DT_FLOAT
    }
  }
  attr {
    key: "_output_shapes"
    value {
      list {
        shape {
          dim {
            size: 128
          }
          dim {
            size: 256
          }
        }
      }
    }
  }
  attr {
    key: "_tpu_replicate"
    value {
      s: "cluster"
    }
  }
  attr {
    key: "data_format"
    value {
      s: "NHWC"
    }
  }
}
node {
  name: "Generator_1/generator/dropout/dropout/rate"
  op: "Const"
  input: "^Identity"
  attr {
    key: "_output_shapes"
    value {
      list {
        shape {
        }
      }
    }
  }
  attr {
    key: "_tpu_replicate"
    value {
      s: "cluster"
    }
  }
  attr {
    key: "dtype"
    value {
      type: DT_FLOAT
    }
  }
  attr {
    key: "value"
    value {
      tensor {
        dtype: DT_FLOAT
        tensor_shape {
        }
        float_val: 0.25
      }
    }
  }
}
node {
  name: "Generator_1/generator/dropout/dropout/Shape"
  op: "Const"
  input: "^Identity"
  attr {
    key: "_output_shapes"
    value {
      list {
        shape {
          dim {
            size: 2
          }
        }
      }
    }
  }
  attr {
    key: "_tpu_replicate"
    value {
      s: "cluster"
    }
  }
  attr {
    key: "dtype"
    value {
      type: DT_INT32
    }
  }
  attr {
    key: "value"
    value {
      tensor {
        dtype: DT_INT32
        tensor_shape {
          dim {
            size: 2
          }
        }
        tensor_content: "\200\000\000\000\000\001\000\000"
      }
    }
  }
}
node {
  name: "Generator_1/generator/dropout/dropout/sub/x"
  op: "Const"
  input: "^Identity"
  attr {
    key: "_output_shapes"
    value {
      list {
        shape {
        }
      }
    }
  }
  attr {
    key: "_tpu_replicate"
    value {
      s: "cluster"
    }
  }
  attr {
    key: "dtype"
    value {
      type: DT_FLOAT
    }
  }
  attr {
    key: "value"
    value {
      tensor {
        dtype: DT_FLOAT
        tensor_shape {
        }
        float_val: 1.0
      }
    }
  }
}
node {
  name: "Generator_1/generator/dropout/dropout/sub"
  op: "Sub"
  input: "Generator_1/generator/dropout/dropout/sub/x"
  input: "Generator_1/generator/dropout/dropout/rate"
  attr {
    key: "T"
    value {
      type: DT_FLOAT
    }
  }
  attr {
    key: "_output_shapes"
    value {
      list {
        shape {
        }
      }
    }
  }
  attr {
    key: "_tpu_replicate"
    value {
      s: "cluster"
    }
  }
}
node {
  name: "Generator_1/generator/dropout/dropout/random_uniform/min"
  op: "Const"
  input: "^Identity"
  attr {
    key: "_output_shapes"
    value {
      list {
        shape {
        }
      }
    }
  }
  attr {
    key: "_tpu_replicate"
    value {
      s: "cluster"
    }
  }
  attr {
    key: "dtype"
    value {
      type: DT_FLOAT
    }
  }
  attr {
    key: "value"
    value {
      tensor {
        dtype: DT_FLOAT
        tensor_shape {
        }
        float_val: 0.0
      }
    }
  }
}
node {
  name: "Generator_1/generator/dropout/dropout/random_uniform/max"
  op: "Const"
  input: "^Identity"
  attr {
    key: "_output_shapes"
    value {
      list {
        shape {
        }
      }
    }
  }
  attr {
    key: "_tpu_replicate"
    value {
      s: "cluster"
    }
  }
  attr {
    key: "dtype"
    value {
      type: DT_FLOAT
    }
  }
  attr {
    key: "value"
    value {
      tensor {
        dtype: DT_FLOAT
        tensor_shape {
        }
        float_val: 1.0
      }
    }
  }
}
node {
  name: "Generator_1/generator/dropout/dropout/random_uniform/RandomUniform"
  op: "RandomUniform"
  input: "Generator_1/generator/dropout/dropout/Shape"
  attr {
    key: "T"
    value {
      type: DT_INT32
    }
  }
  attr {
    key: "_output_shapes"
    value {
      list {
        shape {
          dim {
            size: 128
          }
          dim {
            size: 256
          }
        }
      }
    }
  }
  attr {
    key: "_tpu_replicate"
    value {
      s: "cluster"
    }
  }
  attr {
    key: "dtype"
    value {
      type: DT_FLOAT
    }
  }
  attr {
    key: "seed"
    value {
      i: 0
    }
  }
  attr {
    key: "seed2"
    value {
      i: 0
    }
  }
}
node {
  name: "Generator_1/generator/dropout/dropout/random_uniform/sub"
  op: "Sub"
  input: "Generator_1/generator/dropout/dropout/random_uniform/max"
  input: "Generator_1/generator/dropout/dropout/random_uniform/min"
  attr {
    key: "T"
    value {
      type: DT_FLOAT
    }
  }
  attr {
    key: "_output_shapes"
    value {
      list {
        shape {
        }
      }
    }
  }
  attr {
    key: "_tpu_replicate"
    value {
      s: "cluster"
    }
  }
}
node {
  name: "Generator_1/generator/dropout/dropout/random_uniform/mul"
  op: "Mul"
  input: "Generator_1/generator/dropout/dropout/random_uniform/RandomUniform"
  input: "Generator_1/generator/dropout/dropout/random_uniform/sub"
  attr {
    key: "T"
    value {
      type: DT_FLOAT
    }
  }
  attr {
    key: "_output_shapes"
    value {
      list {
        shape {
          dim {
            size: 128
          }
          dim {
            size: 256
          }
        }
      }
    }
  }
  attr {
    key: "_tpu_replicate"
    value {
      s: "cluster"
    }
  }
}
node {
  name: "Generator_1/generator/dropout/dropout/random_uniform"
  op: "Add"
  input: "Generator_1/generator/dropout/dropout/random_uniform/mul"
  input: "Generator_1/generator/dropout/dropout/random_uniform/min"
  attr {
    key: "T"
    value {
      type: DT_FLOAT
    }
  }
  attr {
    key: "_output_shapes"
    value {
      list {
        shape {
          dim {
            size: 128
          }
          dim {
            size: 256
          }
        }
      }
    }
  }
  attr {
    key: "_tpu_replicate"
    value {
      s: "cluster"
    }
  }
}
node {
  name: "Generator_1/generator/dropout/dropout/add"
  op: "Add"
  input: "Generator_1/generator/dropout/dropout/sub"
  input: "Generator_1/generator/dropout/dropout/random_uniform"
  attr {
    key: "T"
    value {
      type: DT_FLOAT
    }
  }
  attr {
    key: "_output_shapes"
    value {
      list {
        shape {
          dim {
            size: 128
          }
          dim {
            size: 256
          }
        }
      }
    }
  }
  attr {
    key: "_tpu_replicate"
    value {
      s: "cluster"
    }
  }
}
node {
  name: "Generator_1/generator/dropout/dropout/Floor"
  op: "Floor"
  input: "Generator_1/generator/dropout/dropout/add"
  attr {
    key: "T"
    value {
      type: DT_FLOAT
    }
  }
  attr {
    key: "_output_shapes"
    value {
      list {
        shape {
          dim {
            size: 128
          }
          dim {
            size: 256
          }
        }
      }
    }
  }
  attr {
    key: "_tpu_replicate"
    value {
      s: "cluster"
    }
  }
}
node {
  name: "Generator_1/generator/dropout/dropout/truediv"
  op: "RealDiv"
  input: "Generator_1/generator/g_fc1/BiasAdd"
  input: "Generator_1/generator/dropout/dropout/sub"
  attr {
    key: "T"
    value {
      type: DT_FLOAT
    }
  }
  attr {
    key: "_output_shapes"
    value {
      list {
        shape {
          dim {
            size: 128
          }
          dim {
            size: 256
          }
        }
      }
    }
  }
  attr {
    key: "_tpu_replicate"
    value {
      s: "cluster"
    }
  }
}
node {
  name: "Generator_1/generator/dropout/dropout/mul"
  op: "Mul"
  input: "Generator_1/generator/dropout/dropout/truediv"
  input: "Generator_1/generator/dropout/dropout/Floor"
  attr {
    key: "T"
    value {
      type: DT_FLOAT
    }
  }
  attr {
    key: "_output_shapes"
    value {
      list {
        shape {
          dim {
            size: 128
          }
          dim {
            size: 256
          }
        }
      }
    }
  }
  attr {
    key: "_tpu_replicate"
    value {
      s: "cluster"
    }
  }
}
node {
  name: "Generator_1/generator/Tanh"
  op: "Tanh"
  input: "Generator_1/generator/dropout/dropout/mul"
  attr {
    key: "T"
    value {
      type: DT_FLOAT
    }
  }
  attr {
    key: "_output_shapes"
    value {
      list {
        shape {
          dim {
            size: 128
          }
          dim {
            size: 256
          }
        }
      }
    }
  }
  attr {
    key: "_tpu_replicate"
    value {
      s: "cluster"
    }
  }
}
node {
  name: "Generator_1/generator/g_fc2/MatMul/ReadVariableOp"
  op: "ReadVariableOp"
  input: "Generator/generator/g_fc2/MatMul/ReadVariableOp/Enter"
  input: "^Identity"
  attr {
    key: "_output_shapes"
    value {
      list {
        shape {
          dim {
            size: 256
          }
          dim {
            size: 3072
          }
        }
      }
    }
  }
  attr {
    key: "_tpu_replicate"
    value {
      s: "cluster"
    }
  }
  attr {
    key: "dtype"
    value {
      type: DT_FLOAT
    }
  }
}
node {
  name: "Generator_1/generator/g_fc2/MatMul"
  op: "MatMul"
  input: "Generator_1/generator/Tanh"
  input: "Generator_1/generator/g_fc2/MatMul/ReadVariableOp"
  attr {
    key: "T"
    value {
      type: DT_FLOAT
    }
  }
  attr {
    key: "_output_shapes"
    value {
      list {
        shape {
          dim {
            size: 128
          }
          dim {
            size: 3072
          }
        }
      }
    }
  }
  attr {
    key: "_tpu_replicate"
    value {
      s: "cluster"
    }
  }
  attr {
    key: "transpose_a"
    value {
      b: false
    }
  }
  attr {
    key: "transpose_b"
    value {
      b: false
    }
  }
}
node {
  name: "Generator_1/generator/g_fc2/BiasAdd/ReadVariableOp"
  op: "ReadVariableOp"
  input: "Generator/generator/g_fc2/BiasAdd/ReadVariableOp/Enter"
  input: "^Identity"
  attr {
    key: "_output_shapes"
    value {
      list {
        shape {
          dim {
            size: 3072
          }
        }
      }
    }
  }
  attr {
    key: "_tpu_replicate"
    value {
      s: "cluster"
    }
  }
  attr {
    key: "dtype"
    value {
      type: DT_FLOAT
    }
  }
}
node {
  name: "Generator_1/generator/g_fc2/BiasAdd"
  op: "BiasAdd"
  input: "Generator_1/generator/g_fc2/MatMul"
  input: "Generator_1/generator/g_fc2/BiasAdd/ReadVariableOp"
  attr {
    key: "T"
    value {
      type: DT_FLOAT
    }
  }
  attr {
    key: "_output_shapes"
    value {
      list {
        shape {
          dim {
            size: 128
          }
          dim {
            size: 3072
          }
        }
      }
    }
  }
  attr {
    key: "_tpu_replicate"
    value {
      s: "cluster"
    }
  }
  attr {
    key: "data_format"
    value {
      s: "NHWC"
    }
  }
}
node {
  name: "Generator_1/generator/Reshape/shape"
  op: "Const"
  input: "^Identity"
  attr {
    key: "_output_shapes"
    value {
      list {
        shape {
          dim {
            size: 4
          }
        }
      }
    }
  }
  attr {
    key: "_tpu_replicate"
    value {
      s: "cluster"
    }
  }
  attr {
    key: "dtype"
    value {
      type: DT_INT32
    }
  }
  attr {
    key: "value"
    value {
      tensor {
        dtype: DT_INT32
        tensor_shape {
          dim {
            size: 4
          }
        }
        tensor_content: "\377\377\377\377 \000\000\000 \000\000\000\003\000\000\000"
      }
    }
  }
}
node {
  name: "Generator_1/generator/Reshape"
  op: "Reshape"
  input: "Generator_1/generator/g_fc2/BiasAdd"
  input: "Generator_1/generator/Reshape/shape"
  attr {
    key: "T"
    value {
      type: DT_FLOAT
    }
  }
  attr {
    key: "Tshape"
    value {
      type: DT_INT32
    }
  }
  attr {
    key: "_output_shapes"
    value {
      list {
        shape {
          dim {
            size: 128
          }
          dim {
            size: 32
          }
          dim {
            size: 32
          }
          dim {
            size: 3
          }
        }
      }
    }
  }
  attr {
    key: "_tpu_replicate"
    value {
      s: "cluster"
    }
  }
}
node {
  name: "Generator_1/generator/Tanh_1"
  op: "Tanh"
  input: "Generator_1/generator/Reshape"
  attr {
    key: "T"
    value {
      type: DT_FLOAT
    }
  }
  attr {
    key: "_output_shapes"
    value {
      list {
        shape {
          dim {
            size: 128
          }
          dim {
            size: 32
          }
          dim {
            size: 32
          }
          dim {
            size: 3
          }
        }
      }
    }
  }
  attr {
    key: "_tpu_replicate"
    value {
      s: "cluster"
    }
  }
}
node {
  name: "Discriminator_2/discriminator/flatten/Reshape/shape"
  op: "Const"
  input: "^Identity"
  attr {
    key: "_output_shapes"
    value {
      list {
        shape {
          dim {
            size: 2
          }
        }
      }
    }
  }
  attr {
    key: "_tpu_replicate"
    value {
      s: "cluster"
    }
  }
  attr {
    key: "dtype"
    value {
      type: DT_INT32
    }
  }
  attr {
    key: "value"
    value {
      tensor {
        dtype: DT_INT32
        tensor_shape {
          dim {
            size: 2
          }
        }
        tensor_content: "\200\000\000\000\377\377\377\377"
      }
    }
  }
}
node {
  name: "Discriminator_2/discriminator/flatten/Reshape"
  op: "Reshape"
  input: "Generator_1/generator/Tanh_1"
  input: "Discriminator_2/discriminator/flatten/Reshape/shape"
  attr {
    key: "T"
    value {
      type: DT_FLOAT
    }
  }
  attr {
    key: "Tshape"
    value {
      type: DT_INT32
    }
  }
  attr {
    key: "_output_shapes"
    value {
      list {
        shape {
          dim {
            size: 128
          }
          dim {
            size: 3072
          }
        }
      }
    }
  }
  attr {
    key: "_tpu_replicate"
    value {
      s: "cluster"
    }
  }
}
node {
  name: "Discriminator_2/discriminator/d_fc1/MatMul/ReadVariableOp"
  op: "ReadVariableOp"
  input: "Discriminator/discriminator/d_fc1/MatMul/ReadVariableOp/Enter"
  input: "^Identity"
  attr {
    key: "_output_shapes"
    value {
      list {
        shape {
          dim {
            size: 3072
          }
          dim {
            size: 256
          }
        }
      }
    }
  }
  attr {
    key: "_tpu_replicate"
    value {
      s: "cluster"
    }
  }
  attr {
    key: "dtype"
    value {
      type: DT_FLOAT
    }
  }
}
node {
  name: "Discriminator_2/discriminator/d_fc1/MatMul"
  op: "MatMul"
  input: "Discriminator_2/discriminator/flatten/Reshape"
  input: "Discriminator_2/discriminator/d_fc1/MatMul/ReadVariableOp"
  attr {
    key: "T"
    value {
      type: DT_FLOAT
    }
  }
  attr {
    key: "_output_shapes"
    value {
      list {
        shape {
          dim {
            size: 128
          }
          dim {
            size: 256
          }
        }
      }
    }
  }
  attr {
    key: "_tpu_replicate"
    value {
      s: "cluster"
    }
  }
  attr {
    key: "transpose_a"
    value {
      b: false
    }
  }
  attr {
    key: "transpose_b"
    value {
      b: false
    }
  }
}
node {
  name: "Discriminator_2/discriminator/d_fc1/BiasAdd/ReadVariableOp"
  op: "ReadVariableOp"
  input: "Discriminator/discriminator/d_fc1/BiasAdd/ReadVariableOp/Enter"
  input: "^Identity"
  attr {
    key: "_output_shapes"
    value {
      list {
        shape {
          dim {
            size: 256
          }
        }
      }
    }
  }
  attr {
    key: "_tpu_replicate"
    value {
      s: "cluster"
    }
  }
  attr {
    key: "dtype"
    value {
      type: DT_FLOAT
    }
  }
}
node {
  name: "Discriminator_2/discriminator/d_fc1/BiasAdd"
  op: "BiasAdd"
  input: "Discriminator_2/discriminator/d_fc1/MatMul"
  input: "Discriminator_2/discriminator/d_fc1/BiasAdd/ReadVariableOp"
  attr {
    key: "T"
    value {
      type: DT_FLOAT
    }
  }
  attr {
    key: "_output_shapes"
    value {
      list {
        shape {
          dim {
            size: 128
          }
          dim {
            size: 256
          }
        }
      }
    }
  }
  attr {
    key: "_tpu_replicate"
    value {
      s: "cluster"
    }
  }
  attr {
    key: "data_format"
    value {
      s: "NHWC"
    }
  }
}
node {
  name: "Discriminator_2/discriminator/dropout/dropout/rate"
  op: "Const"
  input: "^Identity"
  attr {
    key: "_output_shapes"
    value {
      list {
        shape {
        }
      }
    }
  }
  attr {
    key: "_tpu_replicate"
    value {
      s: "cluster"
    }
  }
  attr {
    key: "dtype"
    value {
      type: DT_FLOAT
    }
  }
  attr {
    key: "value"
    value {
      tensor {
        dtype: DT_FLOAT
        tensor_shape {
        }
        float_val: 0.25
      }
    }
  }
}
node {
  name: "Discriminator_2/discriminator/dropout/dropout/Shape"
  op: "Const"
  input: "^Identity"
  attr {
    key: "_output_shapes"
    value {
      list {
        shape {
          dim {
            size: 2
          }
        }
      }
    }
  }
  attr {
    key: "_tpu_replicate"
    value {
      s: "cluster"
    }
  }
  attr {
    key: "dtype"
    value {
      type: DT_INT32
    }
  }
  attr {
    key: "value"
    value {
      tensor {
        dtype: DT_INT32
        tensor_shape {
          dim {
            size: 2
          }
        }
        tensor_content: "\200\000\000\000\000\001\000\000"
      }
    }
  }
}
node {
  name: "Discriminator_2/discriminator/dropout/dropout/sub/x"
  op: "Const"
  input: "^Identity"
  attr {
    key: "_output_shapes"
    value {
      list {
        shape {
        }
      }
    }
  }
  attr {
    key: "_tpu_replicate"
    value {
      s: "cluster"
    }
  }
  attr {
    key: "dtype"
    value {
      type: DT_FLOAT
    }
  }
  attr {
    key: "value"
    value {
      tensor {
        dtype: DT_FLOAT
        tensor_shape {
        }
        float_val: 1.0
      }
    }
  }
}
node {
  name: "Discriminator_2/discriminator/dropout/dropout/sub"
  op: "Sub"
  input: "Discriminator_2/discriminator/dropout/dropout/sub/x"
  input: "Discriminator_2/discriminator/dropout/dropout/rate"
  attr {
    key: "T"
    value {
      type: DT_FLOAT
    }
  }
  attr {
    key: "_output_shapes"
    value {
      list {
        shape {
        }
      }
    }
  }
  attr {
    key: "_tpu_replicate"
    value {
      s: "cluster"
    }
  }
}
node {
  name: "Discriminator_2/discriminator/dropout/dropout/random_uniform/min"
  op: "Const"
  input: "^Identity"
  attr {
    key: "_output_shapes"
    value {
      list {
        shape {
        }
      }
    }
  }
  attr {
    key: "_tpu_replicate"
    value {
      s: "cluster"
    }
  }
  attr {
    key: "dtype"
    value {
      type: DT_FLOAT
    }
  }
  attr {
    key: "value"
    value {
      tensor {
        dtype: DT_FLOAT
        tensor_shape {
        }
        float_val: 0.0
      }
    }
  }
}
node {
  name: "Discriminator_2/discriminator/dropout/dropout/random_uniform/max"
  op: "Const"
  input: "^Identity"
  attr {
    key: "_output_shapes"
    value {
      list {
        shape {
        }
      }
    }
  }
  attr {
    key: "_tpu_replicate"
    value {
      s: "cluster"
    }
  }
  attr {
    key: "dtype"
    value {
      type: DT_FLOAT
    }
  }
  attr {
    key: "value"
    value {
      tensor {
        dtype: DT_FLOAT
        tensor_shape {
        }
        float_val: 1.0
      }
    }
  }
}
node {
  name: "Discriminator_2/discriminator/dropout/dropout/random_uniform/RandomUniform"
  op: "RandomUniform"
  input: "Discriminator_2/discriminator/dropout/dropout/Shape"
  attr {
    key: "T"
    value {
      type: DT_INT32
    }
  }
  attr {
    key: "_output_shapes"
    value {
      list {
        shape {
          dim {
            size: 128
          }
          dim {
            size: 256
          }
        }
      }
    }
  }
  attr {
    key: "_tpu_replicate"
    value {
      s: "cluster"
    }
  }
  attr {
    key: "dtype"
    value {
      type: DT_FLOAT
    }
  }
  attr {
    key: "seed"
    value {
      i: 0
    }
  }
  attr {
    key: "seed2"
    value {
      i: 0
    }
  }
}
node {
  name: "Discriminator_2/discriminator/dropout/dropout/random_uniform/sub"
  op: "Sub"
  input: "Discriminator_2/discriminator/dropout/dropout/random_uniform/max"
  input: "Discriminator_2/discriminator/dropout/dropout/random_uniform/min"
  attr {
    key: "T"
    value {
      type: DT_FLOAT
    }
  }
  attr {
    key: "_output_shapes"
    value {
      list {
        shape {
        }
      }
    }
  }
  attr {
    key: "_tpu_replicate"
    value {
      s: "cluster"
    }
  }
}
node {
  name: "Discriminator_2/discriminator/dropout/dropout/random_uniform/mul"
  op: "Mul"
  input: "Discriminator_2/discriminator/dropout/dropout/random_uniform/RandomUniform"
  input: "Discriminator_2/discriminator/dropout/dropout/random_uniform/sub"
  attr {
    key: "T"
    value {
      type: DT_FLOAT
    }
  }
  attr {
    key: "_output_shapes"
    value {
      list {
        shape {
          dim {
            size: 128
          }
          dim {
            size: 256
          }
        }
      }
    }
  }
  attr {
    key: "_tpu_replicate"
    value {
      s: "cluster"
    }
  }
}
node {
  name: "Discriminator_2/discriminator/dropout/dropout/random_uniform"
  op: "Add"
  input: "Discriminator_2/discriminator/dropout/dropout/random_uniform/mul"
  input: "Discriminator_2/discriminator/dropout/dropout/random_uniform/min"
  attr {
    key: "T"
    value {
      type: DT_FLOAT
    }
  }
  attr {
    key: "_output_shapes"
    value {
      list {
        shape {
          dim {
            size: 128
          }
          dim {
            size: 256
          }
        }
      }
    }
  }
  attr {
    key: "_tpu_replicate"
    value {
      s: "cluster"
    }
  }
}
node {
  name: "Discriminator_2/discriminator/dropout/dropout/add"
  op: "Add"
  input: "Discriminator_2/discriminator/dropout/dropout/sub"
  input: "Discriminator_2/discriminator/dropout/dropout/random_uniform"
  attr {
    key: "T"
    value {
      type: DT_FLOAT
    }
  }
  attr {
    key: "_output_shapes"
    value {
      list {
        shape {
          dim {
            size: 128
          }
          dim {
            size: 256
          }
        }
      }
    }
  }
  attr {
    key: "_tpu_replicate"
    value {
      s: "cluster"
    }
  }
}
node {
  name: "Discriminator_2/discriminator/dropout/dropout/Floor"
  op: "Floor"
  input: "Discriminator_2/discriminator/dropout/dropout/add"
  attr {
    key: "T"
    value {
      type: DT_FLOAT
    }
  }
  attr {
    key: "_output_shapes"
    value {
      list {
        shape {
          dim {
            size: 128
          }
          dim {
            size: 256
          }
        }
      }
    }
  }
  attr {
    key: "_tpu_replicate"
    value {
      s: "cluster"
    }
  }
}
node {
  name: "Discriminator_2/discriminator/dropout/dropout/truediv"
  op: "RealDiv"
  input: "Discriminator_2/discriminator/d_fc1/BiasAdd"
  input: "Discriminator_2/discriminator/dropout/dropout/sub"
  attr {
    key: "T"
    value {
      type: DT_FLOAT
    }
  }
  attr {
    key: "_output_shapes"
    value {
      list {
        shape {
          dim {
            size: 128
          }
          dim {
            size: 256
          }
        }
      }
    }
  }
  attr {
    key: "_tpu_replicate"
    value {
      s: "cluster"
    }
  }
}
node {
  name: "Discriminator_2/discriminator/dropout/dropout/mul"
  op: "Mul"
  input: "Discriminator_2/discriminator/dropout/dropout/truediv"
  input: "Discriminator_2/discriminator/dropout/dropout/Floor"
  attr {
    key: "T"
    value {
      type: DT_FLOAT
    }
  }
  attr {
    key: "_output_shapes"
    value {
      list {
        shape {
          dim {
            size: 128
          }
          dim {
…
    key: "shape"
    value {
      shape {
      }
    }
  }
}
node {
  name: "save/StringJoin/inputs_1"
  op: "Const"
  attr {
    key: "_output_shapes"
    value {
      list {
        shape {
        }
      }
    }
  }
  attr {
    key: "dtype"
    value {
      type: DT_STRING
    }
  }
  attr {
    key: "value"
    value {
      tensor {
        dtype: DT_STRING
        tensor_shape {
        }
        string_val: "_temp_8905929af5b54ab58e3a862a6f104929/part"
      }
    }
  }
}
node {
  name: "save/StringJoin"
  op: "StringJoin"
  input: "save/Const"
  input: "save/StringJoin/inputs_1"
  attr {
    key: "N"
    value {
      i: 2
    }
  }
  attr {
    key: "_output_shapes"
    value {
      list {
        shape {
        }
      }
    }
  }
  attr {
    key: "separator"
    value {
      s: ""
    }
  }
}
node {
  name: "save/num_shards"
  op: "Const"
  attr {
    key: "_output_shapes"
    value {
      list {
        shape {
        }
      }
    }
  }
  attr {
    key: "dtype"
    value {
      type: DT_INT32
    }
  }
  attr {
    key: "value"
    value {
      tensor {
        dtype: DT_INT32
        tensor_shape {
        }
        int_val: 1
      }
    }
  }
}
node {
  name: "save/ShardedFilename/shard"
  op: "Const"
  device: "/device:CPU:0"
  attr {
    key: "_output_shapes"
    value {
      list {
        shape {
        }
      }
    }
  }
  attr {
    key: "dtype"
    value {
      type: DT_INT32
    }
  }
  attr {
    key: "value"
    value {
      tensor {
        dtype: DT_INT32
        tensor_shape {
        }
        int_val: 0
      }
    }
  }
}
node {
  name: "save/ShardedFilename"
  op: "ShardedFilename"
  input: "save/StringJoin"
  input: "save/ShardedFilename/shard"
  input: "save/num_shards"
  device: "/device:CPU:0"
  attr {
    key: "_output_shapes"
    value {
      list {
        shape {
        }
      }
    }
  }
}
node {
  name: "save/SaveV2/tensor_names"
  op: "Const"
  device: "/device:CPU:0"
  attr {
    key: "_output_shapes"
    value {
      list {
        shape {
          dim {
            size: 29
          }
        }
      }
    }
  }
  attr {
    key: "dtype"
    value {
      type: DT_STRING
    }
  }
  attr {
    key: "value"
    value {
      tensor {
        dtype: DT_STRING
        tensor_shape {
          dim {
            size: 29
          }
        }
        string_val: "Discriminator/discriminator/d_fc1/bias"
        string_val: "Discriminator/discriminator/d_fc1/bias/Adam"
        string_val: "Discriminator/discriminator/d_fc1/bias/Adam_1"
        string_val: "Discriminator/discriminator/d_fc1/kernel"
        string_val: "Discriminator/discriminator/d_fc1/kernel/Adam"
        string_val: "Discriminator/discriminator/d_fc1/kernel/Adam_1"
        string_val: "Discriminator/discriminator/d_fc2/bias"
        string_val: "Discriminator/discriminator/d_fc2/bias/Adam"
        string_val: "Discriminator/discriminator/d_fc2/bias/Adam_1"
        string_val: "Discriminator/discriminator/d_fc2/kernel"
        string_val: "Discriminator/discriminator/d_fc2/kernel/Adam"
        string_val: "Discriminator/discriminator/d_fc2/kernel/Adam_1"
        string_val: "Generator/generator/g_fc1/bias"
        string_val: "Generator/generator/g_fc1/bias/Adam"
        string_val: "Generator/generator/g_fc1/bias/Adam_1"
        string_val: "Generator/generator/g_fc1/kernel"
        string_val: "Generator/generator/g_fc1/kernel/Adam"
        string_val: "Generator/generator/g_fc1/kernel/Adam_1"
        string_val: "Generator/generator/g_fc2/bias"
        string_val: "Generator/generator/g_fc2/bias/Adam"
        string_val: "Generator/generator/g_fc2/bias/Adam_1"
        string_val: "Generator/generator/g_fc2/kernel"
        string_val: "Generator/generator/g_fc2/kernel/Adam"
        string_val: "Generator/generator/g_fc2/kernel/Adam_1"
        string_val: "discriminator_train/beta1_power"
        string_val: "discriminator_train/beta2_power"
        string_val: "generator_train/beta1_power"
        string_val: "generator_train/beta2_power"
        string_val: "global_step"
      }
    }
  }
}
node {
  name: "save/SaveV2/shape_and_slices"
  op: "Const"
  device: "/device:CPU:0"
  attr {
    key: "_output_shapes"
    value {
      list {
        shape {
          dim {
            size: 29
          }
        }
      }
    }
  }
  attr {
    key: "dtype"
    value {
      type: DT_STRING
    }
  }
  attr {
    key: "value"
    value {
      tensor {
        dtype: DT_STRING
        tensor_shape {
          dim {
            size: 29
          }
        }
        string_val: ""
        string_val: ""
        string_val: ""
        string_val: ""
        string_val: ""
        string_val: ""
        string_val: ""
        string_val: ""
        string_val: ""
        string_val: ""
        string_val: ""
        string_val: ""
        string_val: ""
        string_val: ""
        string_val: ""
        string_val: ""
        string_val: ""
        string_val: ""
        string_val: ""
        string_val: ""
        string_val: ""
        string_val: ""
        string_val: ""
        string_val: ""
        string_val: ""
        string_val: ""
        string_val: ""
        string_val: ""
        string_val: ""
      }
    }
  }
}
node {
  name: "save/SaveV2"
  op: "SaveV2"
  input: "save/ShardedFilename"
  input: "save/SaveV2/tensor_names"
  input: "save/SaveV2/shape_and_slices"
  input: "Discriminator/discriminator/d_fc1/bias/Read/ReadVariableOp"
  input: "Discriminator/discriminator/d_fc1/bias/Adam/Read/ReadVariableOp"
  input: "Discriminator/discriminator/d_fc1/bias/Adam_1/Read/ReadVariableOp"
  input: "Discriminator/discriminator/d_fc1/kernel/Read/ReadVariableOp"
  input: "Discriminator/discriminator/d_fc1/kernel/Adam/Read/ReadVariableOp"
  input: "Discriminator/discriminator/d_fc1/kernel/Adam_1/Read/ReadVariableOp"
  input: "Discriminator/discriminator/d_fc2/bias/Read/ReadVariableOp"
  input: "Discriminator/discriminator/d_fc2/bias/Adam/Read/ReadVariableOp"
  input: "Discriminator/discriminator/d_fc2/bias/Adam_1/Read/ReadVariableOp"
  input: "Discriminator/discriminator/d_fc2/kernel/Read/ReadVariableOp"
  input: "Discriminator/discriminator/d_fc2/kernel/Adam/Read/ReadVariableOp"
  input: "Discriminator/discriminator/d_fc2/kernel/Adam_1/Read/ReadVariableOp"
  input: "Generator/generator/g_fc1/bias/Read/ReadVariableOp"
  input: "Generator/generator/g_fc1/bias/Adam/Read/ReadVariableOp"
  input: "Generator/generator/g_fc1/bias/Adam_1/Read/ReadVariableOp"
  input: "Generator/generator/g_fc1/kernel/Read/ReadVariableOp"
  input: "Generator/generator/g_fc1/kernel/Adam/Read/ReadVariableOp"
  input: "Generator/generator/g_fc1/kernel/Adam_1/Read/ReadVariableOp"
  input: "Generator/generator/g_fc2/bias/Read/ReadVariableOp"
  input: "Generator/generator/g_fc2/bias/Adam/Read/ReadVariableOp"
  input: "Generator/generator/g_fc2/bias/Adam_1/Read/ReadVariableOp"
  input: "Generator/generator/g_fc2/kernel/Read/ReadVariableOp"
  input: "Generator/generator/g_fc2/kernel/Adam/Read/ReadVariableOp"
  input: "Generator/generator/g_fc2/kernel/Adam_1/Read/ReadVariableOp"
  input: "discriminator_train/beta1_power/Read/ReadVariableOp"
  input: "discriminator_train/beta2_power/Read/ReadVariableOp"
  input: "generator_train/beta1_power/Read/ReadVariableOp"
  input: "generator_train/beta2_power/Read/ReadVariableOp"
  input: "global_step/Read/ReadVariableOp"
  device: "/device:CPU:0"
  attr {
    key: "dtypes"
    value {
      list {
        type: DT_FLOAT
        type: DT_FLOAT
        type: DT_FLOAT
        type: DT_FLOAT
        type: DT_FLOAT
        type: DT_FLOAT
        type: DT_FLOAT
        type: DT_FLOAT
        type: DT_FLOAT
        type: DT_FLOAT
        type: DT_FLOAT
        type: DT_FLOAT
        type: DT_FLOAT
        type: DT_FLOAT
        type: DT_FLOAT
        type: DT_FLOAT
        type: DT_FLOAT
        type: DT_FLOAT
        type: DT_FLOAT
        type: DT_FLOAT
        type: DT_FLOAT
        type: DT_FLOAT
        type: DT_FLOAT
        type: DT_FLOAT
        type: DT_FLOAT
        type: DT_FLOAT
        type: DT_FLOAT
        type: DT_FLOAT
        type: DT_INT64
      }
    }
  }
}
node {
  name: "save/control_dependency"
  op: "Identity"
  input: "save/ShardedFilename"
  input: "^save/SaveV2"
  device: "/device:CPU:0"
  attr {
    key: "T"
    value {
      type: DT_STRING
    }
  }
  attr {
    key: "_class"
    value {
      list {
        s: "loc:@save/ShardedFilename"
      }
    }
  }
  attr {
    key: "_output_shapes"
    value {
      list {
        shape {
        }
      }
    }
  }
}
node {
  name: "save/MergeV2Checkpoints/checkpoint_prefixes"
  op: "Pack"
  input: "save/ShardedFilename"
  input: "^save/control_dependency"
  device: "/device:CPU:0"
  attr {
    key: "N"
    value {
      i: 1
    }
  }
  attr {
    key: "T"
    value {
      type: DT_STRING
    }
  }
  attr {
    key: "_output_shapes"
    value {
      list {
        shape {
          dim {
            size: 1
          }
        }
      }
    }
  }
  attr {
    key: "axis"
    value {
      i: 0
    }
  }
}
node {
  name: "save/MergeV2Checkpoints"
  op: "MergeV2Checkpoints"
  input: "save/MergeV2Checkpoints/checkpoint_prefixes"
  input: "save/Const"
  device: "/device:CPU:0"
  attr {
    key: "delete_old_dirs"
    value {
      b: true
    }
  }
}
node {
  name: "save/Identity"
  op: "Identity"
  input: "save/Const"
  input: "^save/MergeV2Checkpoints"
  input: "^save/control_dependency"
  device: "/device:CPU:0"
  attr {
    key: "T"
    value {
      type: DT_STRING
    }
  }
  attr {
    key: "_output_shapes"
    value {
      list {
        shape {
        }
      }
    }
  }
}
node {
  name: "save/RestoreV2/tensor_names"
  op: "Const"
  device: "/device:CPU:0"
  attr {
    key: "_output_shapes"
    value {
      list {
        shape {
          dim {
            size: 29
          }
        }
      }
    }
  }
  attr {
    key: "dtype"
    value {
      type: DT_STRING
    }
  }
  attr {
    key: "value"
    value {
      tensor {
        dtype: DT_STRING
        tensor_shape {
          dim {
            size: 29
          }
        }
        string_val: "Discriminator/discriminator/d_fc1/bias"
        string_val: "Discriminator/discriminator/d_fc1/bias/Adam"
        string_val: "Discriminator/discriminator/d_fc1/bias/Adam_1"
        string_val: "Discriminator/discriminator/d_fc1/kernel"
        string_val: "Discriminator/discriminator/d_fc1/kernel/Adam"
        string_val: "Discriminator/discriminator/d_fc1/kernel/Adam_1"
        string_val: "Discriminator/discriminator/d_fc2/bias"
        string_val: "Discriminator/discriminator/d_fc2/bias/Adam"
        string_val: "Discriminator/discriminator/d_fc2/bias/Adam_1"
        string_val: "Discriminator/discriminator/d_fc2/kernel"
        string_val: "Discriminator/discriminator/d_fc2/kernel/Adam"
        string_val: "Discriminator/discriminator/d_fc2/kernel/Adam_1"
        string_val: "Generator/generator/g_fc1/bias"
        string_val: "Generator/generator/g_fc1/bias/Adam"
        string_val: "Generator/generator/g_fc1/bias/Adam_1"
        string_val: "Generator/generator/g_fc1/kernel"
        string_val: "Generator/generator/g_fc1/kernel/Adam"
        string_val: "Generator/generator/g_fc1/kernel/Adam_1"
        string_val: "Generator/generator/g_fc2/bias"
        string_val: "Generator/generator/g_fc2/bias/Adam"
        string_val: "Generator/generator/g_fc2/bias/Adam_1"
        string_val: "Generator/generator/g_fc2/kernel"
        string_val: "Generator/generator/g_fc2/kernel/Adam"
        string_val: "Generator/generator/g_fc2/kernel/Adam_1"
        string_val: "discriminator_train/beta1_power"
        string_val: "discriminator_train/beta2_power"
        string_val: "generator_train/beta1_power"
        string_val: "generator_train/beta2_power"
        string_val: "global_step"
      }
    }
  }
}
node {
  name: "save/RestoreV2/shape_and_slices"
  op: "Const"
  device: "/device:CPU:0"
  attr {
    key: "_output_shapes"
    value {
      list {
        shape {
          dim {
            size: 29
          }
        }
      }
    }
  }
  attr {
    key: "dtype"
    value {
      type: DT_STRING
    }
  }
  attr {
    key: "value"
    value {
      tensor {
        dtype: DT_STRING
        tensor_shape {
          dim {
            size: 29
          }
        }
        string_val: ""
        string_val: ""
        string_val: ""
        string_val: ""
        string_val: ""
        string_val: ""
        string_val: ""
        string_val: ""
        string_val: ""
        string_val: ""
        string_val: ""
        string_val: ""
        string_val: ""
        string_val: ""
        string_val: ""
        string_val: ""
        string_val: ""
        string_val: ""
        string_val: ""
        string_val: ""
        string_val: ""
        string_val: ""
        string_val: ""
        string_val: ""
        string_val: ""
        string_val: ""
        string_val: ""
        string_val: ""
        string_val: ""
      }
    }
  }
}
node {
  name: "save/RestoreV2"
  op: "RestoreV2"
  input: "save/Const"
  input: "save/RestoreV2/tensor_names"
  input: "save/RestoreV2/shape_and_slices"
  device: "/device:CPU:0"
  attr {
    key: "_output_shapes"
    value {
      list {
        shape {
          unknown_rank: true
        }
        shape {
          unknown_rank: true
        }
        shape {
          unknown_rank: true
        }
        shape {
          unknown_rank: true
        }
        shape {
          unknown_rank: true
        }
        shape {
          unknown_rank: true
        }
        shape {
          unknown_rank: true
        }
        shape {
          unknown_rank: true
        }
        shape {
          unknown_rank: true
        }
        shape {
          unknown_rank: true
        }
        shape {
          unknown_rank: true
        }
        shape {
          unknown_rank: true
        }
        shape {
          unknown_rank: true
        }
        shape {
          unknown_rank: true
        }
        shape {
          unknown_rank: true
        }
        shape {
          unknown_rank: true
        }
        shape {
          unknown_rank: true
        }
        shape {
          unknown_rank: true
        }
        shape {
          unknown_rank: true
        }
        shape {
          unknown_rank: true
        }
        shape {
          unknown_rank: true
        }
        shape {
          unknown_rank: true
        }
        shape {
          unknown_rank: true
        }
        shape {
          unknown_rank: true
        }
        shape {
          unknown_rank: true
        }
        shape {
          unknown_rank: true
        }
        shape {
          unknown_rank: true
        }
        shape {
          unknown_rank: true
        }
        shape {
          unknown_rank: true
        }
      }
    }
  }
  attr {
    key: "dtypes"
    value {
      list {
        type: DT_FLOAT
        type: DT_FLOAT
        type: DT_FLOAT
        type: DT_FLOAT
        type: DT_FLOAT
        type: DT_FLOAT
        type: DT_FLOAT
        type: DT_FLOAT
        type: DT_FLOAT
        type: DT_FLOAT
        type: DT_FLOAT
        type: DT_FLOAT
        type: DT_FLOAT
        type: DT_FLOAT
        type: DT_FLOAT
        type: DT_FLOAT
        type: DT_FLOAT
        type: DT_FLOAT
        type: DT_FLOAT
        type: DT_FLOAT
        type: DT_FLOAT
        type: DT_FLOAT
        type: DT_FLOAT
        type: DT_FLOAT
        type: DT_FLOAT
        type: DT_FLOAT
        type: DT_FLOAT
        type: DT_FLOAT
        type: DT_INT64
      }
    }
  }
}
node {
  name: "save/Identity_1"
  op: "Identity"
  input: "save/RestoreV2"
  attr {
    key: "T"
    value {
      type: DT_FLOAT
    }
  }
  attr {
    key: "_output_shapes"
    value {
      list {
        shape {
          unknown_rank: true
        }
      }
    }
  }
}
node {
  name: "save/AssignVariableOp"
  op: "AssignVariableOp"
  input: "Discriminator/discriminator/d_fc1/bias"
  input: "save/Identity_1"
  attr {
    key: "dtype"
    value {
      type: DT_FLOAT
    }
  }
}
node {
  name: "save/Identity_2"
  op: "Identity"
  input: "save/RestoreV2:1"
  attr {
    key: "T"
    value {
      type: DT_FLOAT
    }
  }
  attr {
    key: "_output_shapes"
    value {
      list {
        shape {
          unknown_rank: true
        }
      }
    }
  }
}
node {
  name: "save/AssignVariableOp_1"
  op: "AssignVariableOp"
  input: "Discriminator/discriminator/d_fc1/bias/Adam"
  input: "save/Identity_2"
  attr {
    key: "dtype"
    value {
      type: DT_FLOAT
    }
  }
}
node {
  name: "save/Identity_3"
  op: "Identity"
  input: "save/RestoreV2:2"
  attr {
    key: "T"
    value {
      type: DT_FLOAT
    }
  }
  attr {
    key: "_output_shapes"
    value {
      list {
        shape {
          unknown_rank: true
        }
      }
    }
  }
}
node {
  name: "save/AssignVariableOp_2"
  op: "AssignVariableOp"
  input: "Discriminator/discriminator/d_fc1/bias/Adam_1"
  input: "save/Identity_3"
  attr {
    key: "dtype"
    value {
      type: DT_FLOAT
    }
  }
}
node {
  name: "save/Identity_4"
  op: "Identity"
  input: "save/RestoreV2:3"
  attr {
    key: "T"
    value {
      type: DT_FLOAT
    }
  }
  attr {
    key: "_output_shapes"
    value {
      list {
        shape {
          unknown_rank: true
        }
      }
    }
  }
}
node {
  name: "save/AssignVariableOp_3"
  op: "AssignVariableOp"
  input: "Discriminator/discriminator/d_fc1/kernel"
  input: "save/Identity_4"
  attr {
    key: "dtype"
    value {
      type: DT_FLOAT
    }
  }
}
node {
  name: "save/Identity_5"
  op: "Identity"
  input: "save/RestoreV2:4"
  attr {
    key: "T"
    value {
      type: DT_FLOAT
    }
  }
  attr {
    key: "_output_shapes"
    value {
      list {
        shape {
          unknown_rank: true
        }
      }
    }
  }
}
node {
  name: "save/AssignVariableOp_4"
  op: "AssignVariableOp"
  input: "Discriminator/discriminator/d_fc1/kernel/Adam"
  input: "save/Identity_5"
  attr {
    key: "dtype"
    value {
      type: DT_FLOAT
    }
  }
}
node {
  name: "save/Identity_6"
  op: "Identity"
  input: "save/RestoreV2:5"
  attr {
    key: "T"
    value {
      type: DT_FLOAT
    }
  }
  attr {
    key: "_output_shapes"
    value {
      list {
        shape {
          unknown_rank: true
        }
      }
    }
  }
}
node {
  name: "save/AssignVariableOp_5"
  op: "AssignVariableOp"
  input: "Discriminator/discriminator/d_fc1/kernel/Adam_1"
  input: "save/Identity_6"
  attr {
    key: "dtype"
    value {
      type: DT_FLOAT
    }
  }
}
node {
  name: "save/Identity_7"
  op: "Identity"
  input: "save/RestoreV2:6"
  attr {
    key: "T"
    value {
      type: DT_FLOAT
    }
  }
  attr {
    key: "_output_shapes"
    value {
      list {
        shape {
          unknown_rank: true
        }
      }
    }
  }
}
node {
  name: "save/AssignVariableOp_6"
  op: "AssignVariableOp"
  input: "Discriminator/discriminator/d_fc2/bias"
  input: "save/Identity_7"
  attr {
    key: "dtype"
    value {
      type: DT_FLOAT
    }
  }
}
node {
  name: "save/Identity_8"
  op: "Identity"
  input: "save/RestoreV2:7"
  attr {
    key: "T"
    value {
      type: DT_FLOAT
    }
  }
  attr {
    key: "_output_shapes"
    value {
      list {
        shape {
          unknown_rank: true
        }
      }
    }
  }
}
node {
  name: "save/AssignVariableOp_7"
  op: "AssignVariableOp"
  input: "Discriminator/discriminator/d_fc2/bias/Adam"
  input: "save/Identity_8"
  attr {
    key: "dtype"
    value {
      type: DT_FLOAT
    }
  }
}
node {
  name: "save/Identity_9"
  op: "Identity"
  input: "save/RestoreV2:8"
  attr {
    key: "T"
    value {
      type: DT_FLOAT
    }
  }
  attr {
    key: "_output_shapes"
    value {
      list {
        shape {
          unknown_rank: true
        }
      }
    }
  }
}
node {
  name: "save/AssignVariableOp_8"
  op: "AssignVariableOp"
  input: "Discriminator/discriminator/d_fc2/bias/Adam_1"
  input: "save/Identity_9"
  attr {
    key: "dtype"
    value {
      type: DT_FLOAT
    }
  }
}
node {
  name: "save/Identity_10"
  op: "Identity"
  input: "save/RestoreV2:9"
  attr {
    key: "T"
    value {
      type: DT_FLOAT
    }
  }
  attr {
    key: "_output_shapes"
    value {
      list {
        shape {
          unknown_rank: true
        }
      }
    }
  }
}
node {
  name: "save/AssignVariableOp_9"
  op: "AssignVariableOp"
  input: "Discriminator/discriminator/d_fc2/kernel"
  input: "save/Identity_10"
  attr {
    key: "dtype"
    value {
      type: DT_FLOAT
    }
  }
}
node {
  name: "save/Identity_11"
  op: "Identity"
  input: "save/RestoreV2:10"
  attr {
    key: "T"
    value {
      type: DT_FLOAT
    }
  }
  attr {
    key: "_output_shapes"
    value {
      list {
        shape {
          unknown_rank: true
        }
      }
    }
  }
}
node {
  name: "save/AssignVariableOp_10"
  op: "AssignVariableOp"
  input: "Discriminator/discriminator/d_fc2/kernel/Adam"
  input: "save/Identity_11"
  attr {
    key: "dtype"
    value {
      type: DT_FLOAT
    }
  }
}
node {
  name: "save/Identity_12"
  op: "Identity"
  input: "save/RestoreV2:11"
  attr {
    key: "T"
    value {
      type: DT_FLOAT
    }
  }
  attr {
    key: "_output_shapes"
    value {
      list {
        shape {
          unknown_rank: true
        }
      }
    }
  }
}
node {
  name: "save/AssignVariableOp_11"
  op: "AssignVariableOp"
  input: "Discriminator/discriminator/d_fc2/kernel/Adam_1"
  input: "save/Identity_12"
  attr {
    key: "dtype"
    value {
      type: DT_FLOAT
    }
  }
}
node {
  name: "save/Identity_13"
  op: "Identity"
  input: "save/RestoreV2:12"
  attr {
    key: "T"
    value {
      type: DT_FLOAT
    }
  }
  attr {
    key: "_output_shapes"
    value {
      list {
        shape {
          unknown_rank: true
        }
      }
    }
  }
}
node {
  name: "save/AssignVariableOp_12"
  op: "AssignVariableOp"
  input: "Generator/generator/g_fc1/bias"
  input: "save/Identity_13"
  attr {
    key: "dtype"
    value {
      type: DT_FLOAT
    }
  }
}
node {
  name: "save/Identity_14"
  op: "Identity"
  input: "save/RestoreV2:13"
  attr {
    key: "T"
    value {
      type: DT_FLOAT
    }
  }
  attr {
    key: "_output_shapes"
    value {
      list {
        shape {
          unknown_rank: true
        }
      }
    }
  }
}
node {
  name: "save/AssignVariableOp_13"
  op: "AssignVariableOp"
  input: "Generator/generator/g_fc1/bias/Adam"
  input: "save/Identity_14"
  attr {
    key: "dtype"
    value {
      type: DT_FLOAT
    }
  }
}
node {
  name: "save/Identity_15"
  op: "Identity"
  input: "save/RestoreV2:14"
  attr {
    key: "T"
    value {
      type: DT_FLOAT
    }
  }
  attr {
    key: "_output_shapes"
    value {
      list {
        shape {
          unknown_rank: true
        }
      }
    }
  }
}
node {
  name: "save/AssignVariableOp_14"
  op: "AssignVariableOp"
  input: "Generator/generator/g_fc1/bias/Adam_1"
  input: "save/Identity_15"
  attr {
    key: "dtype"
    value {
      type: DT_FLOAT
    }
  }
}
node {
  name: "save/Identity_16"
  op: "Identity"
  input: "save/RestoreV2:15"
  attr {
    key: "T"
    value {
      type: DT_FLOAT
    }
  }
  attr {
    key: "_output_shapes"
    value {
      list {
        shape {
          unknown_rank: true
        }
      }
    }
  }
}
node {
  name: "save/AssignVariableOp_15"
  op: "AssignVariableOp"
  input: "Generator/generator/g_fc1/kernel"
  input: "save/Identity_16"
  attr {
    key: "dtype"
    value {
      type: DT_FLOAT
    }
  }
}
node {
  name: "save/Identity_17"
  op: "Identity"
  input: "save/RestoreV2:16"
  attr {
    key: "T"
    value {
      type: DT_FLOAT
    }
  }
  attr {
    key: "_output_shapes"
    value {
      list {
        shape {
          unknown_rank: true
        }
      }
    }
  }
}
node {
  name: "save/AssignVariableOp_16"
  op: "AssignVariableOp"
  input: "Generator/generator/g_fc1/kernel/Adam"
  input: "save/Identity_17"
  attr {
    key: "dtype"
    value {
      type: DT_FLOAT
    }
  }
}
node {
  name: "save/Identity_18"
  op: "Identity"
  input: "save/RestoreV2:17"
  attr {
    key: "T"
    value {
      type: DT_FLOAT
    }
  }
  attr {
    key: "_output_shapes"
    value {
      list {
        shape {
          unknown_rank: true
        }
      }
    }
  }
}
node {
  name: "save/AssignVariableOp_17"
  op: "AssignVariableOp"
  input: "Generator/generator/g_fc1/kernel/Adam_1"
  input: "save/Identity_18"
  attr {
    key: "dtype"
    value {
      type: DT_FLOAT
    }
  }
}
node {
  name: "save/Identity_19"
  op: "Identity"
  input: "save/RestoreV2:18"
  attr {
    key: "T"
    value {
      type: DT_FLOAT
    }
  }
  attr {
    key: "_output_shapes"
    value {
      list {
        shape {
          unknown_rank: true
        }
      }
    }
  }
}
node {
  name: "save/AssignVariableOp_18"
  op: "AssignVariableOp"
  input: "Generator/generator/g_fc2/bias"
  input: "save/Identity_19"
  attr {
    key: "dtype"
    value {
      type: DT_FLOAT
    }
  }
}
node {
  name: "save/Identity_20"
  op: "Identity"
  input: "save/RestoreV2:19"
  attr {
    key: "T"
    value {
      type: DT_FLOAT
    }
  }
  attr {
    key: "_output_shapes"
    value {
      list {
        shape {
          unknown_rank: true
        }
      }
    }
  }
}
node {
  name: "save/AssignVariableOp_19"
  op: "AssignVariableOp"
  input: "Generator/generator/g_fc2/bias/Adam"
  input: "save/Identity_20"
  attr {
    key: "dtype"
    value {
      type: DT_FLOAT
    }
  }
}
node {
  name: "save/Identity_21"
  op: "Identity"
  input: "save/RestoreV2:20"
  attr {
    key: "T"
    value {
      type: DT_FLOAT
    }
  }
  attr {
    key: "_output_shapes"
    value {
      list {
        shape {
          unknown_rank: true
        }
      }
    }
  }
}
node {
  name: "save/AssignVariableOp_20"
  op: "AssignVariableOp"
  input: "Generator/generator/g_fc2/bias/Adam_1"
  input: "save/Identity_21"
  attr {
    key: "dtype"
    value {
      type: DT_FLOAT
    }
  }
}
node {
  name: "save/Identity_22"
  op: "Identity"
  input: "save/RestoreV2:21"
  attr {
    key: "T"
    value {
      type: DT_FLOAT
    }
  }
  attr {
    key: "_output_shapes"
    value {
      list {
        shape {
          unknown_rank: true
        }
      }
    }
  }
}
node {
  name: "save/AssignVariableOp_21"
  op: "AssignVariableOp"
  input: "Generator/generator/g_fc2/kernel"
  input: "save/Identity_22"
  attr {
    key: "dtype"
    value {
      type: DT_FLOAT
    }
  }
}
node {
  name: "save/Identity_23"
  op: "Identity"
  input: "save/RestoreV2:22"
  attr {
    key: "T"
    value {
      type: DT_FLOAT
    }
  }
  attr {
    key: "_output_shapes"
    value {
      list {
        shape {
          unknown_rank: true
        }
      }
    }
  }
}
node {
  name: "save/AssignVariableOp_22"
  op: "AssignVariableOp"
  input: "Generator/generator/g_fc2/kernel/Adam"
  input: "save/Identity_23"
  attr {
    key: "dtype"
    value {
      type: DT_FLOAT
    }
  }
}
node {
  name: "save/Identity_24"
  op: "Identity"
  input: "save/RestoreV2:23"
  attr {
    key: "T"
    value {
      type: DT_FLOAT
    }
  }
  attr {
    key: "_output_shapes"
    value {
      list {
        shape {
          unknown_rank: true
        }
      }
    }
  }
}
node {
  name: "save/AssignVariableOp_23"
  op: "AssignVariableOp"
  input: "Generator/generator/g_fc2/kernel/Adam_1"
  input: "save/Identity_24"
  attr {
    key: "dtype"
    value {
      type: DT_FLOAT
    }
  }
}
node {
  name: "save/Identity_25"
  op: "Identity"
  input: "save/RestoreV2:24"
  attr {
    key: "T"
    value {
      type: DT_FLOAT
    }
  }
  attr {
    key: "_output_shapes"
    value {
      list {
        shape {
          unknown_rank: true
        }
      }
    }
  }
}
node {
  name: "save/AssignVariableOp_24"
  op: "AssignVariableOp"
  input: "discriminator_train/beta1_power"
  input: "save/Identity_25"
  attr {
    key: "dtype"
    value {
      type: DT_FLOAT
    }
  }
}
node {
  name: "save/Identity_26"
  op: "Identity"
  input: "save/RestoreV2:25"
  attr {
    key: "T"
    value {
      type: DT_FLOAT
    }
  }
  attr {
    key: "_output_shapes"
    value {
      list {
        shape {
          unknown_rank: true
        }
      }
    }
  }
}
node {
  name: "save/AssignVariableOp_25"
  op: "AssignVariableOp"
  input: "discriminator_train/beta2_power"
  input: "save/Identity_26"
  attr {
    key: "dtype"
    value {
      type: DT_FLOAT
    }
  }
}
node {
  name: "save/Identity_27"
  op: "Identity"
  input: "save/RestoreV2:26"
  attr {
    key: "T"
    value {
      type: DT_FLOAT
    }
  }
  attr {
    key: "_output_shapes"
    value {
      list {
        shape {
          unknown_rank: true
        }
      }
    }
  }
}
node {
  name: "save/AssignVariableOp_26"
  op: "AssignVariableOp"
  input: "generator_train/beta1_power"
  input: "save/Identity_27"
  attr {
    key: "dtype"
    value {
      type: DT_FLOAT
    }
  }
}
node {
  name: "save/Identity_28"
  op: "Identity"
  input: "save/RestoreV2:27"
  attr {
    key: "T"
    value {
      type: DT_FLOAT
    }
  }
  attr {
    key: "_output_shapes"
    value {
      list {
        shape {
          unknown_rank: true
        }
      }
    }
  }
}
node {
  name: "save/AssignVariableOp_27"
  op: "AssignVariableOp"
  input: "generator_train/beta2_power"
  input: "save/Identity_28"
  attr {
    key: "dtype"
    value {
      type: DT_FLOAT
    }
  }
}
node {
  name: "save/Identity_29"
  op: "Identity"
  input: "save/RestoreV2:28"
  attr {
    key: "T"
    value {
      type: DT_INT64
    }
  }
  attr {
    key: "_output_shapes"
    value {
      list {
        shape {
          unknown_rank: true
        }
      }
    }
  }
}
node {
  name: "save/AssignVariableOp_28"
  op: "AssignVariableOp"
  input: "global_step"
  input: "save/Identity_29"
  attr {
    key: "dtype"
    value {
      type: DT_INT64
    }
  }
}
node {
  name: "save/restore_shard"
  op: "NoOp"
  input: "^save/AssignVariableOp"
  input: "^save/AssignVariableOp_1"
  input: "^save/AssignVariableOp_10"
  input: "^save/AssignVariableOp_11"
  input: "^save/AssignVariableOp_12"
  input: "^save/AssignVariableOp_13"
  input: "^save/AssignVariableOp_14"
  input: "^save/AssignVariableOp_15"
  input: "^save/AssignVariableOp_16"
  input: "^save/AssignVariableOp_17"
  input: "^save/AssignVariableOp_18"
  input: "^save/AssignVariableOp_19"
  input: "^save/AssignVariableOp_2"
  input: "^save/AssignVariableOp_20"
  input: "^save/AssignVariableOp_21"
  input: "^save/AssignVariableOp_22"
  input: "^save/AssignVariableOp_23"
  input: "^save/AssignVariableOp_24"
  input: "^save/AssignVariableOp_25"
  input: "^save/AssignVariableOp_26"
  input: "^save/AssignVariableOp_27"
  input: "^save/AssignVariableOp_28"
  input: "^save/AssignVariableOp_3"
  input: "^save/AssignVariableOp_4"
  input: "^save/AssignVariableOp_5"
  input: "^save/AssignVariableOp_6"
  input: "^save/AssignVariableOp_7"
  input: "^save/AssignVariableOp_8"
  input: "^save/AssignVariableOp_9"
}
node {
  name: "save/restore_all"
  op: "NoOp"
  input: "^save/restore_shard"
}
library {
  function {
    signature {
      name: "Dataset_map_parser_85177"
      input_arg {
        name: "arg0"
        type: DT_STRING
      }
      output_arg {
        name: "sub"
        type: DT_FLOAT
      }
      description: "Wrapper for passing nested structures to and from tf.data functions."
    }
    node_def {
      name: "ParseSingleExample/Const"
      op: "Const"
      device: "/job:tpu_worker/task:0/device:CPU:0"
      attr {
        key: "dtype"
        value {
          type: DT_INT64
        }
      }
      attr {
        key: "value"
        value {
          tensor {
            dtype: DT_INT64
            tensor_shape {
              dim {
              }
            }
          }
        }
      }
    }
    node_def {
      name: "ParseSingleExample/Const_1"
      op: "Const"
      device: "/job:tpu_worker/task:0/device:CPU:0"
      attr {
        key: "dtype"
        value {
          type: DT_INT64
        }
      }
      attr {
        key: "value"
        value {
          tensor {
            dtype: DT_INT64
            tensor_shape {
              dim {
              }
            }
          }
        }
      }
    }
    node_def {
      name: "ParseSingleExample/ParseSingleExample"
      op: "ParseSingleExample"
      input: "arg0"
      input: "ParseSingleExample/Const:output:0"
      input: "ParseSingleExample/Const_1:output:0"
      device: "/job:tpu_worker/task:0/device:CPU:0"
      attr {
        key: "Tdense"
        value {
          list {
            type: DT_INT64
            type: DT_INT64
          }
        }
      }
      attr {
        key: "dense_keys"
        value {
          list {
            s: "image"
            s: "label"
          }
        }
      }
      attr {
        key: "dense_shapes"
        value {
          list {
            shape {
              dim {
                size: 32
              }
              dim {
                size: 32
              }
              dim {
                size: 3
              }
            }
            shape {
            }
          }
        }
      }
      attr {
        key: "num_sparse"
        value {
          i: 0
        }
      }
      attr {
        key: "sparse_keys"
        value {
          list {
          }
        }
      }
      attr {
        key: "sparse_types"
        value {
          list {
          }
        }
      }
    }
    node_def {
      name: "Cast"
      op: "Cast"
      input: "ParseSingleExample/ParseSingleExample:dense_values:0"
      device: "/job:tpu_worker/task:0/device:CPU:0"
      attr {
        key: "DstT"
        value {
          type: DT_FLOAT
        }
      }
      attr {
        key: "SrcT"
        value {
          type: DT_INT64
        }
      }
      attr {
        key: "Truncate"
        value {
          b: false
        }
      }
    }
    node_def {
      name: "mul/y"
      op: "Const"
      device: "/job:tpu_worker/task:0/device:CPU:0"
      attr {
        key: "dtype"
        value {
          type: DT_FLOAT
        }
      }
      attr {
        key: "value"
        value {
          tensor {
            dtype: DT_FLOAT
            tensor_shape {
            }
            float_val: 0.007843137718737125
          }
        }
      }
    }
    node_def {
      name: "mul"
      op: "Mul"
      input: "Cast:y:0"
      input: "mul/y:output:0"
      device: "/job:tpu_worker/task:0/device:CPU:0"
      attr {
        key: "T"
        value {
          type: DT_FLOAT
        }
      }
    }
    node_def {
      name: "sub/y"
      op: "Const"
      device: "/job:tpu_worker/task:0/device:CPU:0"
      attr {
        key: "dtype"
        value {
          type: DT_FLOAT
        }
      }
      attr {
        key: "value"
        value {
          tensor {
            dtype: DT_FLOAT
            tensor_shape {
            }
            float_val: 1.0
          }
        }
      }
    }
    node_def {
      name: "sub_0"
      op: "Sub"
      input: "mul:z:0"
      input: "sub/y:output:0"
      device: "/job:tpu_worker/task:0/device:CPU:0"
      attr {
        key: "T"
        value {
          type: DT_FLOAT
        }
      }
    }
    ret {
      key: "sub"
      value: "sub_0:z:0"
    }
  }
  function {
    signature {
      name: "Dataset_flat_map_read_one_file_85171"
      input_arg {
        name: "arg0"
        type: DT_STRING
      }
      output_arg {
        name: "tfrecorddataset"
        type: DT_VARIANT
      }
      description: "Wrapper for passing nested structures to and from tf.data functions."
      is_stateful: true
    }
    node_def {
      name: "compression_type"
      op: "Const"
      device: "/job:tpu_worker/task:0/device:CPU:0"
      attr {
        key: "dtype"
        value {
          type: DT_STRING
        }
      }
      attr {
        key: "value"
        value {
          tensor {
            dtype: DT_STRING
            tensor_shape {
            }
            string_val: ""
          }
        }
      }
    }
    node_def {
      name: "buffer_size"
      op: "Const"
      device: "/job:tpu_worker/task:0/device:CPU:0"
      attr {
        key: "dtype"
        value {
          type: DT_INT64
        }
      }
      attr {
        key: "value"
        value {
          tensor {
            dtype: DT_INT64
            tensor_shape {
            }
            int64_val: 262144
          }
        }
      }
    }
    node_def {
      name: "TFRecordDataset"
      op: "TFRecordDataset"
      input: "arg0"
      input: "compression_type:output:0"
      input: "buffer_size:output:0"
      device: "/job:tpu_worker/task:0/device:CPU:0"
    }
    ret {
      key: "tfrecorddataset"
      value: "TFRecordDataset:handle:0"
    }
  }
  function {
    signature {
      name: "_make_dataset_Y2kVwh2aTmE"
      output_arg {
        name: "modeldataset"
        type: DT_VARIANT
      }
      description: "Factory function for a dataset."
      is_stateful: true
    }
    node_def {
      name: "optimizations"
      op: "Const"
      device: "/job:tpu_worker/task:0/device:CPU:0"
      attr {
        key: "dtype"
        value {
          type: DT_STRING
        }
      }
      attr {
        key: "value"
        value {
          tensor {
            dtype: DT_STRING
            tensor_shape {
              dim {
                size: 3
              }
            }
            string_val: "map_and_batch_fusion"
            string_val: "noop_elimination"
            string_val: "shuffle_and_repeat_fusion"
          }
        }
      }
    }
    node_def {
      name: "TensorSliceDataset/input_pipeline_task0/Const"
      op: "Const"
      device: "/job:tpu_worker/task:0/device:CPU:0"
      attr {
        key: "dtype"
        value {
          type: DT_STRING
        }
      }
      attr {
        key: "value"
        value {
          tensor {
            dtype: DT_STRING
            tensor_shape {
              dim {
                size: 2
              }
            }
            string_val: "gs://victoratpl-gan-tpu/tfrecords/train-1-of-2.tfrecords"
            string_val: "gs://victoratpl-gan-tpu/tfrecords/train-2-of-2.tfrecords"
          }
        }
      }
    }
    node_def {
      name: "TensorSliceDataset/input_pipeline_task0/flat_filenames/shape"
      op: "Const"
      device: "/job:tpu_worker/task:0/device:CPU:0"
      attr {
        key: "dtype"
        value {
          type: DT_INT32
        }
      }
      attr {
        key: "value"
        value {
          tensor {
            dtype: DT_INT32
            tensor_shape {
              dim {
                size: 1
              }
            }
            int_val: -1
          }
        }
      }
    }
    node_def {
      name: "TensorSliceDataset/input_pipeline_task0/flat_filenames"
      op: "Reshape"
      input: "TensorSliceDataset/input_pipeline_task0/Const:output:0"
      input: "TensorSliceDataset/input_pipeline_task0/flat_filenames/shape:output:0"
      device: "/job:tpu_worker/task:0/device:CPU:0"
      attr {
        key: "T"
        value {
          type: DT_STRING
        }
      }
      attr {
        key: "Tshape"
        value {
          type: DT_INT32
        }
      }
    }
    node_def {
      name: "TensorSliceDataset"
      op: "TensorSliceDataset"
      input: "TensorSliceDataset/input_pipeline_task0/flat_filenames:output:0"
      device: "/job:tpu_worker/task:0/device:CPU:0"
      attr {
        key: "Toutput_types"
        value {
          list {
            type: DT_STRING
          }
        }
      }
      attr {
        key: "output_shapes"
        value {
          list {
            shape {
            }
          }
        }
      }
    }
    node_def {
      name: "FlatMapDataset"
      op: "FlatMapDataset"
      input: "TensorSliceDataset:handle:0"
      device: "/job:tpu_worker/task:0/device:CPU:0"
      attr {
        key: "Targuments"
        value {
          list {
          }
        }
      }
      attr {
        key: "f"
        value {
          func {
            name: "Dataset_flat_map_read_one_file_85171"
          }
        }
      }
      attr {
        key: "output_shapes"
        value {
          list {
            shape {
            }
          }
        }
      }
      attr {
        key: "output_types"
        value {
          list {
            type: DT_STRING
          }
        }
      }
    }
    node_def {
      name: "ParallelMapDataset/input_pipeline_task0/num_parallel_calls"
      op: "Const"
      device: "/job:tpu_worker/task:0/device:CPU:0"
      attr {
        key: "dtype"
        value {
          type: DT_INT32
        }
      }
      attr {
        key: "value"
        value {
          tensor {
            dtype: DT_INT32
            tensor_shape {
            }
            int_val: -1
          }
        }
      }
    }
    node_def {
      name: "ParallelMapDataset"
      op: "ParallelMapDataset"
      input: "FlatMapDataset:handle:0"
      input: "ParallelMapDataset/input_pipeline_task0/num_parallel_calls:output:0"
      device: "/job:tpu_worker/task:0/device:CPU:0"
      attr {
        key: "Targuments"
        value {
          list {
          }
        }
      }
      attr {
        key: "f"
        value {
          func {
            name: "Dataset_map_parser_85177"
          }
        }
      }
      attr {
        key: "output_shapes"
        value {
          list {
            shape {
              dim {
                size: 32
              }
              dim {
                size: 32
              }
              dim {
                size: 3
              }
            }
          }
        }
      }
      attr {
        key: "output_types"
        value {
          list {
            type: DT_FLOAT
          }
        }
      }
      attr {
        key: "preserve_cardinality"
        value {
          b: false
        }
      }
      attr {
        key: "sloppy"
        value {
          b: false
        }
      }
      attr {
        key: "use_inter_op_parallelism"
        value {
          b: true
        }
      }
    }
    node_def {
      name: "RepeatDataset/input_pipeline_task0/count"
      op: "Const"
      device: "/job:tpu_worker/task:0/device:CPU:0"
      attr {
        key: "dtype"
        value {
          type: DT_INT64
        }
      }
      attr {
        key: "value"
        value {
          tensor {
            dtype: DT_INT64
            tensor_shape {
            }
            int64_val: -1
          }
        }
      }
    }
    node_def {
      name: "RepeatDataset"
      op: "RepeatDataset"
      input: "ParallelMapDataset:handle:0"
      input: "RepeatDataset/input_pipeline_task0/count:output:0"
      device: "/job:tpu_worker/task:0/device:CPU:0"
      attr {
        key: "output_shapes"
        value {
          list {
            shape {
              dim {
                size: 32
              }
              dim {
                size: 32
              }
              dim {
                size: 3
              }
            }
          }
        }
      }
      attr {
        key: "output_types"
        value {
          list {
            type: DT_FLOAT
          }
        }
      }
    }
    node_def {
      name: "ShuffleDataset/input_pipeline_task0/buffer_size"
      op: "Const"
      device: "/job:tpu_worker/task:0/device:CPU:0"
      attr {
        key: "dtype"
        value {
          type: DT_INT64
        }
      }
      attr {
        key: "value"
        value {
          tensor {
            dtype: DT_INT64
            tensor_shape {
            }
            int64_val: 10000
          }
        }
      }
    }
    node_def {
      name: "ShuffleDataset/input_pipeline_task0/seed"
      op: "Const"
      device: "/job:tpu_worker/task:0/device:CPU:0"
      attr {
        key: "dtype"
        value {
          type: DT_INT64
        }
      }
      attr {
        key: "value"
        value {
          tensor {
            dtype: DT_INT64
            tensor_shape {
            }
            int64_val: 0
          }
        }
      }
    }
    node_def {
      name: "ShuffleDataset/input_pipeline_task0/seed2"
      op: "Const"
      device: "/job:tpu_worker/task:0/device:CPU:0"
      attr {
        key: "dtype"
        value {
          type: DT_INT64
        }
      }
      attr {
        key: "value"
        value {
          tensor {
            dtype: DT_INT64
            tensor_shape {
            }
            int64_val: 0
          }
        }
      }
    }
    node_def {
      name: "ShuffleDataset"
      op: "ShuffleDataset"
      input: "RepeatDataset:handle:0"
      input: "ShuffleDataset/input_pipeline_task0/buffer_size:output:0"
      input: "ShuffleDataset/input_pipeline_task0/seed:output:0"
      input: "ShuffleDataset/input_pipeline_task0/seed2:output:0"
      device: "/job:tpu_worker/task:0/device:CPU:0"
      attr {
        key: "output_shapes"
        value {
          list {
            shape {
              dim {
                size: 32
              }
              dim {
                size: 32
              }
              dim {
                size: 3
              }
            }
          }
        }
      }
      attr {
        key: "output_types"
        value {
          list {
            type: DT_FLOAT
          }
        }
      }
      attr {
        key: "reshuffle_each_iteration"
        value {
          b: true
        }
      }
    }
    node_def {
      name: "BatchDatasetV2/input_pipeline_task0/batch_size"
      op: "Const"
      device: "/job:tpu_worker/task:0/device:CPU:0"
      attr {
        key: "dtype"
        value {
          type: DT_INT64
        }
      }
      attr {
        key: "value"
        value {
          tensor {
            dtype: DT_INT64
            tensor_shape {
            }
            int64_val: 2048
          }
        }
      }
    }
    node_def {
      name: "BatchDatasetV2/input_pipeline_task0/drop_remainder"
      op: "Const"
      device: "/job:tpu_worker/task:0/device:CPU:0"
      attr {
        key: "dtype"
        value {
          type: DT_BOOL
        }
      }
      attr {
        key: "value"
        value {
          tensor {
            dtype: DT_BOOL
            tensor_shape {
            }
            bool_val: true
          }
        }
      }
    }
    node_def {
      name: "BatchDatasetV2"
      op: "BatchDatasetV2"
      input: "ShuffleDataset:handle:0"
      input: "BatchDatasetV2/input_pipeline_task0/batch_size:output:0"
      input: "BatchDatasetV2/input_pipeline_task0/drop_remainder:output:0"
      device: "/job:tpu_worker/task:0/device:CPU:0"
      attr {
        key: "output_shapes"
        value {
          list {
            shape {
              dim {
                size: 2048
              }
              dim {
                size: 32
              }
              dim {
                size: 32
              }
              dim {
                size: 3
              }
            }
          }
        }
      }
      attr {
        key: "output_types"
        value {
          list {
            type: DT_FLOAT
          }
        }
      }
    }
    node_def {
      name: "PrefetchDataset/input_pipeline_task0/buffer_size_1"
      op: "Const"
      device: "/job:tpu_worker/task:0/device:CPU:0"
      attr {
        key: "dtype"
        value {
          type: DT_INT64
        }
      }
      attr {
        key: "value"
        value {
          tensor {
            dtype: DT_INT64
            tensor_shape {
            }
            int64_val: -1
          }
        }
      }
    }
    node_def {
      name: "PrefetchDataset"
      op: "PrefetchDataset"
      input: "BatchDatasetV2:handle:0"
      input: "PrefetchDataset/input_pipeline_task0/buffer_size_1:output:0"
      device: "/job:tpu_worker/task:0/device:CPU:0"
      attr {
        key: "output_shapes"
        value {
          list {
            shape {
              dim {
                size: 2048
              }
              dim {
                size: 32
              }
              dim {
                size: 32
              }
              dim {
                size: 3
              }
            }
          }
        }
      }
      attr {
        key: "output_types"
        value {
          list {
            type: DT_FLOAT
          }
        }
      }
    }
    node_def {
      name: "OptimizeDataset"
      op: "OptimizeDataset"
      input: "PrefetchDataset:handle:0"
      input: "optimizations:output:0"
      device: "/job:tpu_worker/task:0/device:CPU:0"
      attr {
        key: "output_shapes"
        value {
          list {
            shape {
              dim {
                size: 2048
              }
              dim {
                size: 32
              }
              dim {
                size: 32
              }
              dim {
                size: 3
              }
            }
          }
        }
      }
      attr {
        key: "output_types"
        value {
          list {
            type: DT_FLOAT
          }
        }
      }
    }
    node_def {
      name: "ModelDataset"
      op: "ModelDataset"
      input: "OptimizeDataset:handle:0"
      device: "/job:tpu_worker/task:0/device:CPU:0"
      attr {
        key: "output_shapes"
        value {
          list {
            shape {
              dim {
                size: 2048
              }
              dim {
                size: 32
              }
              dim {
                size: 32
              }
              dim {
                size: 3
              }
            }
          }
        }
      }
      attr {
        key: "output_types"
        value {
          list {
            type: DT_FLOAT
          }
        }
      }
    }
    ret {
      key: "modeldataset"
      value: "ModelDataset:handle:0"
    }
  }
}
versions {
  producer: 27
  min_consumer: 12
}
